{
  "nodes": [
    {
      "op": "null", 
      "name": "data3", 
      "inputs": []
    }, 
    {
      "op": "repeat", 
      "name": "deeparpredictionnetwork0_repeat5", 
      "attrs": {
        "axis": "0", 
        "repeats": "100"
      }, 
      "inputs": [[0, 0, 0]]
    }, 
    {
      "op": "slice_axis", 
      "name": "deeparpredictionnetwork0_slice_axis38", 
      "attrs": {
        "axis": "1", 
        "begin": "-1", 
        "end": "None"
      }, 
      "inputs": [[1, 0, 0]]
    }, 
    {
      "op": "slice_axis", 
      "name": "deeparpredictionnetwork0_slice_axis39", 
      "attrs": {
        "axis": "1", 
        "begin": "-2", 
        "end": "-1"
      }, 
      "inputs": [[1, 0, 0]]
    }, 
    {
      "op": "slice_axis", 
      "name": "deeparpredictionnetwork0_slice_axis40", 
      "attrs": {
        "axis": "1", 
        "begin": "-3", 
        "end": "-2"
      }, 
      "inputs": [[1, 0, 0]]
    }, 
    {
      "op": "slice_axis", 
      "name": "deeparpredictionnetwork0_slice_axis41", 
      "attrs": {
        "axis": "1", 
        "begin": "-4", 
        "end": "-3"
      }, 
      "inputs": [[1, 0, 0]]
    }, 
    {
      "op": "slice_axis", 
      "name": "deeparpredictionnetwork0_slice_axis42", 
      "attrs": {
        "axis": "1", 
        "begin": "-5", 
        "end": "-4"
      }, 
      "inputs": [[1, 0, 0]]
    }, 
    {
      "op": "slice_axis", 
      "name": "deeparpredictionnetwork0_slice_axis43", 
      "attrs": {
        "axis": "1", 
        "begin": "-6", 
        "end": "-5"
      }, 
      "inputs": [[1, 0, 0]]
    }, 
    {
      "op": "slice_axis", 
      "name": "deeparpredictionnetwork0_slice_axis44", 
      "attrs": {
        "axis": "1", 
        "begin": "-7", 
        "end": "-6"
      }, 
      "inputs": [[1, 0, 0]]
    }, 
    {
      "op": "slice_axis", 
      "name": "deeparpredictionnetwork0_slice_axis45", 
      "attrs": {
        "axis": "1", 
        "begin": "-8", 
        "end": "-7"
      }, 
      "inputs": [[1, 0, 0]]
    }, 
    {
      "op": "slice_axis", 
      "name": "deeparpredictionnetwork0_slice_axis46", 
      "attrs": {
        "axis": "1", 
        "begin": "-13", 
        "end": "-12"
      }, 
      "inputs": [[1, 0, 0]]
    }, 
    {
      "op": "slice_axis", 
      "name": "deeparpredictionnetwork0_slice_axis47", 
      "attrs": {
        "axis": "1", 
        "begin": "-14", 
        "end": "-13"
      }, 
      "inputs": [[1, 0, 0]]
    }, 
    {
      "op": "slice_axis", 
      "name": "deeparpredictionnetwork0_slice_axis48", 
      "attrs": {
        "axis": "1", 
        "begin": "-15", 
        "end": "-14"
      }, 
      "inputs": [[1, 0, 0]]
    }, 
    {
      "op": "slice_axis", 
      "name": "deeparpredictionnetwork0_slice_axis49", 
      "attrs": {
        "axis": "1", 
        "begin": "-20", 
        "end": "-19"
      }, 
      "inputs": [[1, 0, 0]]
    }, 
    {
      "op": "slice_axis", 
      "name": "deeparpredictionnetwork0_slice_axis50", 
      "attrs": {
        "axis": "1", 
        "begin": "-21", 
        "end": "-20"
      }, 
      "inputs": [[1, 0, 0]]
    }, 
    {
      "op": "slice_axis", 
      "name": "deeparpredictionnetwork0_slice_axis51", 
      "attrs": {
        "axis": "1", 
        "begin": "-22", 
        "end": "-21"
      }, 
      "inputs": [[1, 0, 0]]
    }, 
    {
      "op": "slice_axis", 
      "name": "deeparpredictionnetwork0_slice_axis52", 
      "attrs": {
        "axis": "1", 
        "begin": "-27", 
        "end": "-26"
      }, 
      "inputs": [[1, 0, 0]]
    }, 
    {
      "op": "slice_axis", 
      "name": "deeparpredictionnetwork0_slice_axis53", 
      "attrs": {
        "axis": "1", 
        "begin": "-28", 
        "end": "-27"
      }, 
      "inputs": [[1, 0, 0]]
    }, 
    {
      "op": "slice_axis", 
      "name": "deeparpredictionnetwork0_slice_axis54", 
      "attrs": {
        "axis": "1", 
        "begin": "-29", 
        "end": "-28"
      }, 
      "inputs": [[1, 0, 0]]
    }, 
    {
      "op": "slice_axis", 
      "name": "deeparpredictionnetwork0_slice_axis55", 
      "attrs": {
        "axis": "1", 
        "begin": "-30", 
        "end": "-29"
      }, 
      "inputs": [[1, 0, 0]]
    }, 
    {
      "op": "slice_axis", 
      "name": "deeparpredictionnetwork0_slice_axis56", 
      "attrs": {
        "axis": "1", 
        "begin": "-31", 
        "end": "-30"
      }, 
      "inputs": [[1, 0, 0]]
    }, 
    {
      "op": "slice_axis", 
      "name": "deeparpredictionnetwork0_slice_axis57", 
      "attrs": {
        "axis": "1", 
        "begin": "-56", 
        "end": "-55"
      }, 
      "inputs": [[1, 0, 0]]
    }, 
    {
      "op": "slice_axis", 
      "name": "deeparpredictionnetwork0_slice_axis58", 
      "attrs": {
        "axis": "1", 
        "begin": "-84", 
        "end": "-83"
      }, 
      "inputs": [[1, 0, 0]]
    }, 
    {
      "op": "slice_axis", 
      "name": "deeparpredictionnetwork0_slice_axis59", 
      "attrs": {
        "axis": "1", 
        "begin": "-363", 
        "end": "-362"
      }, 
      "inputs": [[1, 0, 0]]
    }, 
    {
      "op": "slice_axis", 
      "name": "deeparpredictionnetwork0_slice_axis60", 
      "attrs": {
        "axis": "1", 
        "begin": "-364", 
        "end": "-363"
      }, 
      "inputs": [[1, 0, 0]]
    }, 
    {
      "op": "slice_axis", 
      "name": "deeparpredictionnetwork0_slice_axis61", 
      "attrs": {
        "axis": "1", 
        "begin": "-365", 
        "end": "-364"
      }, 
      "inputs": [[1, 0, 0]]
    }, 
    {
      "op": "slice_axis", 
      "name": "deeparpredictionnetwork0_slice_axis62", 
      "attrs": {
        "axis": "1", 
        "begin": "-727", 
        "end": "-726"
      }, 
      "inputs": [[1, 0, 0]]
    }, 
    {
      "op": "slice_axis", 
      "name": "deeparpredictionnetwork0_slice_axis63", 
      "attrs": {
        "axis": "1", 
        "begin": "-728", 
        "end": "-727"
      }, 
      "inputs": [[1, 0, 0]]
    }, 
    {
      "op": "slice_axis", 
      "name": "deeparpredictionnetwork0_slice_axis64", 
      "attrs": {
        "axis": "1", 
        "begin": "-729", 
        "end": "-728"
      }, 
      "inputs": [[1, 0, 0]]
    }, 
    {
      "op": "slice_axis", 
      "name": "deeparpredictionnetwork0_slice_axis65", 
      "attrs": {
        "axis": "1", 
        "begin": "-1091", 
        "end": "-1090"
      }, 
      "inputs": [[1, 0, 0]]
    }, 
    {
      "op": "slice_axis", 
      "name": "deeparpredictionnetwork0_slice_axis66", 
      "attrs": {
        "axis": "1", 
        "begin": "-1092", 
        "end": "-1091"
      }, 
      "inputs": [[1, 0, 0]]
    }, 
    {
      "op": "slice_axis", 
      "name": "deeparpredictionnetwork0_slice_axis67", 
      "attrs": {
        "axis": "1", 
        "begin": "-1093", 
        "end": "-1092"
      }, 
      "inputs": [[1, 0, 0]]
    }, 
    {
      "op": "stack", 
      "name": "deeparpredictionnetwork0_stack2", 
      "attrs": {
        "axis": "-1", 
        "num_args": "30"
      }, 
      "inputs": [
        [2, 0, 0], 
        [3, 0, 0], 
        [4, 0, 0], 
        [5, 0, 0], 
        [6, 0, 0], 
        [7, 0, 0], 
        [8, 0, 0], 
        [9, 0, 0], 
        [10, 0, 0], 
        [11, 0, 0], 
        [12, 0, 0], 
        [13, 0, 0], 
        [14, 0, 0], 
        [15, 0, 0], 
        [16, 0, 0], 
        [17, 0, 0], 
        [18, 0, 0], 
        [19, 0, 0], 
        [20, 0, 0], 
        [21, 0, 0], 
        [22, 0, 0], 
        [23, 0, 0], 
        [24, 0, 0], 
        [25, 0, 0], 
        [26, 0, 0], 
        [27, 0, 0], 
        [28, 0, 0], 
        [29, 0, 0], 
        [30, 0, 0], 
        [31, 0, 0]
      ]
    }, 
    {
      "op": "slice_axis", 
      "name": "deeparpredictionnetwork0_slice_axis32", 
      "attrs": {
        "axis": "1", 
        "begin": "-28", 
        "end": "None"
      }, 
      "inputs": [[0, 0, 0]]
    }, 
    {
      "op": "abs", 
      "name": "deeparpredictionnetwork0_meanscaler0_abs0", 
      "inputs": [[33, 0, 0]]
    }, 
    {
      "op": "null", 
      "name": "data4", 
      "inputs": []
    }, 
    {
      "op": "slice_axis", 
      "name": "deeparpredictionnetwork0_slice_axis33", 
      "attrs": {
        "axis": "1", 
        "begin": "-28", 
        "end": "None"
      }, 
      "inputs": [[35, 0, 0]]
    }, 
    {
      "op": "elemwise_mul", 
      "name": "deeparpredictionnetwork0_meanscaler0__mul0", 
      "inputs": [[34, 0, 0], [36, 0, 0]]
    }, 
    {
      "op": "sum", 
      "name": "deeparpredictionnetwork0_meanscaler0_sum1", 
      "attrs": {"axis": "1"}, 
      "inputs": [[37, 0, 0]]
    }, 
    {
      "op": "zeros_like", 
      "name": "deeparpredictionnetwork0_meanscaler0_zeros_like0", 
      "inputs": [[38, 0, 0]]
    }, 
    {
      "op": "broadcast_greater", 
      "name": "deeparpredictionnetwork0_meanscaler0_broadcast_greater0", 
      "inputs": [[38, 0, 0], [39, 0, 0]]
    }, 
    {
      "op": "sum", 
      "name": "deeparpredictionnetwork0_meanscaler0_sum0", 
      "attrs": {"axis": "1"}, 
      "inputs": [[36, 0, 0]]
    }, 
    {
      "op": "_maximum_scalar", 
      "name": "deeparpredictionnetwork0_meanscaler0__maximumscalar1", 
      "attrs": {"scalar": "1.0"}, 
      "inputs": [[41, 0, 0]]
    }, 
    {
      "op": "elemwise_div", 
      "name": "deeparpredictionnetwork0_meanscaler0__div1", 
      "inputs": [[38, 0, 0], [42, 0, 0]]
    }, 
    {
      "op": "sum", 
      "name": "deeparpredictionnetwork0_meanscaler0_sum3", 
      "attrs": {"axis": "0"}, 
      "inputs": [[38, 0, 0]]
    }, 
    {
      "op": "sum", 
      "name": "deeparpredictionnetwork0_meanscaler0_sum2", 
      "attrs": {"axis": "0"}, 
      "inputs": [[41, 0, 0]]
    }, 
    {
      "op": "_maximum_scalar", 
      "name": "deeparpredictionnetwork0_meanscaler0__maximumscalar0", 
      "attrs": {"scalar": "1.0"}, 
      "inputs": [[45, 0, 0]]
    }, 
    {
      "op": "elemwise_div", 
      "name": "deeparpredictionnetwork0_meanscaler0__div0", 
      "inputs": [[44, 0, 0], [46, 0, 0]]
    }, 
    {
      "op": "ones_like", 
      "name": "deeparpredictionnetwork0_meanscaler0_ones_like0", 
      "inputs": [[41, 0, 0]]
    }, 
    {
      "op": "broadcast_mul", 
      "name": "deeparpredictionnetwork0_meanscaler0_broadcast_mul0", 
      "inputs": [[47, 0, 0], [48, 0, 0]]
    }, 
    {
      "op": "where", 
      "name": "deeparpredictionnetwork0_meanscaler0_where0", 
      "inputs": [[40, 0, 0], [43, 0, 0], [49, 0, 0]]
    }, 
    {
      "op": "_maximum_scalar", 
      "name": "deeparpredictionnetwork0_meanscaler0__maximumscalar2", 
      "attrs": {"scalar": "1e-10"}, 
      "inputs": [[50, 0, 0]]
    }, 
    {
      "op": "expand_dims", 
      "name": "deeparpredictionnetwork0_meanscaler0_expand_dims0", 
      "attrs": {"axis": "1"}, 
      "inputs": [[51, 0, 0]]
    }, 
    {
      "op": "repeat", 
      "name": "deeparpredictionnetwork0_repeat8", 
      "attrs": {
        "axis": "0", 
        "repeats": "100"
      }, 
      "inputs": [[52, 0, 0]]
    }, 
    {
      "op": "expand_dims", 
      "name": "deeparpredictionnetwork0_expand_dims3", 
      "attrs": {"axis": "-1"}, 
      "inputs": [[53, 0, 0]]
    }, 
    {
      "op": "broadcast_div", 
      "name": "deeparpredictionnetwork0_broadcast_div1", 
      "inputs": [[32, 0, 0], [54, 0, 0]]
    }, 
    {
      "op": "Reshape", 
      "name": "deeparpredictionnetwork0_reshape1", 
      "attrs": {"shape": "(-1, 1, 30)"}, 
      "inputs": [[55, 0, 0]]
    }, 
    {
      "op": "null", 
      "name": "data5", 
      "inputs": []
    }, 
    {
      "op": "repeat", 
      "name": "deeparpredictionnetwork0_repeat6", 
      "attrs": {
        "axis": "0", 
        "repeats": "100"
      }, 
      "inputs": [[57, 0, 0]]
    }, 
    {
      "op": "slice_axis", 
      "name": "deeparpredictionnetwork0_slice_axis68", 
      "attrs": {
        "axis": "1", 
        "begin": "0", 
        "end": "1"
      }, 
      "inputs": [[58, 0, 0]]
    }, 
    {
      "op": "null", 
      "name": "data0", 
      "inputs": []
    }, 
    {
      "op": "squeeze", 
      "name": "deeparpredictionnetwork0_featureembedder0_squeeze0", 
      "attrs": {"axis": "-1"}, 
      "inputs": [[60, 0, 0]]
    }, 
    {
      "op": "null", 
      "name": "deeparpredictionnetwork0_featureembedder0_cat_0_embedding_weight", 
      "attrs": {
        "__dtype__": "0", 
        "__lr_mult__": "1.0", 
        "__shape__": "(1, 1)", 
        "__storage_type__": "0", 
        "__wd_mult__": "1.0"
      }, 
      "inputs": []
    }, 
    {
      "op": "Embedding", 
      "name": "deeparpredictionnetwork0_featureembedder0_cat_0_embedding_fwd", 
      "attrs": {
        "dtype": "float32", 
        "input_dim": "1", 
        "output_dim": "1", 
        "sparse_grad": "False"
      }, 
      "inputs": [[61, 0, 0], [62, 0, 0]]
    }, 
    {
      "op": "Concat", 
      "name": "deeparpredictionnetwork0_featureembedder0_concat0", 
      "attrs": {
        "dim": "-1", 
        "num_args": "1"
      }, 
      "inputs": [[63, 0, 0]]
    }, 
    {
      "op": "null", 
      "name": "data1", 
      "inputs": []
    }, 
    {
      "op": "log", 
      "name": "deeparpredictionnetwork0_log0", 
      "inputs": [[52, 0, 0]]
    }, 
    {
      "op": "Concat", 
      "name": "deeparpredictionnetwork0_concat0", 
      "attrs": {
        "dim": "1", 
        "num_args": "3"
      }, 
      "inputs": [[64, 0, 0], [65, 0, 0], [66, 0, 0]]
    }, 
    {
      "op": "repeat", 
      "name": "deeparpredictionnetwork0_repeat7", 
      "attrs": {
        "axis": "0", 
        "repeats": "100"
      }, 
      "inputs": [[67, 0, 0]]
    }, 
    {
      "op": "expand_dims", 
      "name": "deeparpredictionnetwork0_expand_dims2", 
      "attrs": {"axis": "1"}, 
      "inputs": [[68, 0, 0]]
    }, 
    {
      "op": "Concat", 
      "name": "deeparpredictionnetwork0_concat2", 
      "attrs": {
        "dim": "-1", 
        "num_args": "3"
      }, 
      "inputs": [[56, 0, 0], [59, 0, 0], [69, 0, 0]]
    }, 
    {
      "op": "SliceChannel", 
      "name": "deeparpredictionnetwork0_split1", 
      "attrs": {
        "axis": "1", 
        "num_outputs": "1", 
        "squeeze_axis": "1"
      }, 
      "inputs": [[70, 0, 0]]
    }, 
    {
      "op": "null", 
      "name": "deeparpredictionnetwork0_lstm0_i2h_weight", 
      "attrs": {
        "__dtype__": "0", 
        "__lr_mult__": "1.0", 
        "__shape__": "(160, 37)", 
        "__storage_type__": "0", 
        "__wd_mult__": "1.0"
      }, 
      "inputs": []
    }, 
    {
      "op": "null", 
      "name": "deeparpredictionnetwork0_lstm0_i2h_bias", 
      "attrs": {
        "__dtype__": "0", 
        "__init__": "zeros", 
        "__lr_mult__": "1.0", 
        "__shape__": "(160,)", 
        "__storage_type__": "0", 
        "__wd_mult__": "1.0"
      }, 
      "inputs": []
    }, 
    {
      "op": "FullyConnected", 
      "name": "deeparpredictionnetwork0_lstm0_t0_i2h", 
      "attrs": {"num_hidden": "160"}, 
      "inputs": [[71, 0, 0], [72, 0, 0], [73, 0, 0]]
    }, 
    {
      "op": "slice_axis", 
      "name": "deeparpredictionnetwork0_slice_axis2", 
      "attrs": {
        "axis": "1", 
        "begin": "-29", 
        "end": "-1"
      }, 
      "inputs": [[0, 0, 0]]
    }, 
    {
      "op": "slice_axis", 
      "name": "deeparpredictionnetwork0_slice_axis3", 
      "attrs": {
        "axis": "1", 
        "begin": "-30", 
        "end": "-2"
      }, 
      "inputs": [[0, 0, 0]]
    }, 
    {
      "op": "slice_axis", 
      "name": "deeparpredictionnetwork0_slice_axis4", 
      "attrs": {
        "axis": "1", 
        "begin": "-31", 
        "end": "-3"
      }, 
      "inputs": [[0, 0, 0]]
    }, 
    {
      "op": "slice_axis", 
      "name": "deeparpredictionnetwork0_slice_axis5", 
      "attrs": {
        "axis": "1", 
        "begin": "-32", 
        "end": "-4"
      }, 
      "inputs": [[0, 0, 0]]
    }, 
    {
      "op": "slice_axis", 
      "name": "deeparpredictionnetwork0_slice_axis6", 
      "attrs": {
        "axis": "1", 
        "begin": "-33", 
        "end": "-5"
      }, 
      "inputs": [[0, 0, 0]]
    }, 
    {
      "op": "slice_axis", 
      "name": "deeparpredictionnetwork0_slice_axis7", 
      "attrs": {
        "axis": "1", 
        "begin": "-34", 
        "end": "-6"
      }, 
      "inputs": [[0, 0, 0]]
    }, 
    {
      "op": "slice_axis", 
      "name": "deeparpredictionnetwork0_slice_axis8", 
      "attrs": {
        "axis": "1", 
        "begin": "-35", 
        "end": "-7"
      }, 
      "inputs": [[0, 0, 0]]
    }, 
    {
      "op": "slice_axis", 
      "name": "deeparpredictionnetwork0_slice_axis9", 
      "attrs": {
        "axis": "1", 
        "begin": "-36", 
        "end": "-8"
      }, 
      "inputs": [[0, 0, 0]]
    }, 
    {
      "op": "slice_axis", 
      "name": "deeparpredictionnetwork0_slice_axis10", 
      "attrs": {
        "axis": "1", 
        "begin": "-41", 
        "end": "-13"
      }, 
      "inputs": [[0, 0, 0]]
    }, 
    {
      "op": "slice_axis", 
      "name": "deeparpredictionnetwork0_slice_axis11", 
      "attrs": {
        "axis": "1", 
        "begin": "-42", 
        "end": "-14"
      }, 
      "inputs": [[0, 0, 0]]
    }, 
    {
      "op": "slice_axis", 
      "name": "deeparpredictionnetwork0_slice_axis12", 
      "attrs": {
        "axis": "1", 
        "begin": "-43", 
        "end": "-15"
      }, 
      "inputs": [[0, 0, 0]]
    }, 
    {
      "op": "slice_axis", 
      "name": "deeparpredictionnetwork0_slice_axis13", 
      "attrs": {
        "axis": "1", 
        "begin": "-48", 
        "end": "-20"
      }, 
      "inputs": [[0, 0, 0]]
    }, 
    {
      "op": "slice_axis", 
      "name": "deeparpredictionnetwork0_slice_axis14", 
      "attrs": {
        "axis": "1", 
        "begin": "-49", 
        "end": "-21"
      }, 
      "inputs": [[0, 0, 0]]
    }, 
    {
      "op": "slice_axis", 
      "name": "deeparpredictionnetwork0_slice_axis15", 
      "attrs": {
        "axis": "1", 
        "begin": "-50", 
        "end": "-22"
      }, 
      "inputs": [[0, 0, 0]]
    }, 
    {
      "op": "slice_axis", 
      "name": "deeparpredictionnetwork0_slice_axis16", 
      "attrs": {
        "axis": "1", 
        "begin": "-55", 
        "end": "-27"
      }, 
      "inputs": [[0, 0, 0]]
    }, 
    {
      "op": "slice_axis", 
      "name": "deeparpredictionnetwork0_slice_axis17", 
      "attrs": {
        "axis": "1", 
        "begin": "-56", 
        "end": "-28"
      }, 
      "inputs": [[0, 0, 0]]
    }, 
    {
      "op": "slice_axis", 
      "name": "deeparpredictionnetwork0_slice_axis18", 
      "attrs": {
        "axis": "1", 
        "begin": "-57", 
        "end": "-29"
      }, 
      "inputs": [[0, 0, 0]]
    }, 
    {
      "op": "slice_axis", 
      "name": "deeparpredictionnetwork0_slice_axis19", 
      "attrs": {
        "axis": "1", 
        "begin": "-58", 
        "end": "-30"
      }, 
      "inputs": [[0, 0, 0]]
    }, 
    {
      "op": "slice_axis", 
      "name": "deeparpredictionnetwork0_slice_axis20", 
      "attrs": {
        "axis": "1", 
        "begin": "-59", 
        "end": "-31"
      }, 
      "inputs": [[0, 0, 0]]
    }, 
    {
      "op": "slice_axis", 
      "name": "deeparpredictionnetwork0_slice_axis21", 
      "attrs": {
        "axis": "1", 
        "begin": "-84", 
        "end": "-56"
      }, 
      "inputs": [[0, 0, 0]]
    }, 
    {
      "op": "slice_axis", 
      "name": "deeparpredictionnetwork0_slice_axis22", 
      "attrs": {
        "axis": "1", 
        "begin": "-112", 
        "end": "-84"
      }, 
      "inputs": [[0, 0, 0]]
    }, 
    {
      "op": "slice_axis", 
      "name": "deeparpredictionnetwork0_slice_axis23", 
      "attrs": {
        "axis": "1", 
        "begin": "-391", 
        "end": "-363"
      }, 
      "inputs": [[0, 0, 0]]
    }, 
    {
      "op": "slice_axis", 
      "name": "deeparpredictionnetwork0_slice_axis24", 
      "attrs": {
        "axis": "1", 
        "begin": "-392", 
        "end": "-364"
      }, 
      "inputs": [[0, 0, 0]]
    }, 
    {
      "op": "slice_axis", 
      "name": "deeparpredictionnetwork0_slice_axis25", 
      "attrs": {
        "axis": "1", 
        "begin": "-393", 
        "end": "-365"
      }, 
      "inputs": [[0, 0, 0]]
    }, 
    {
      "op": "slice_axis", 
      "name": "deeparpredictionnetwork0_slice_axis26", 
      "attrs": {
        "axis": "1", 
        "begin": "-755", 
        "end": "-727"
      }, 
      "inputs": [[0, 0, 0]]
    }, 
    {
      "op": "slice_axis", 
      "name": "deeparpredictionnetwork0_slice_axis27", 
      "attrs": {
        "axis": "1", 
        "begin": "-756", 
        "end": "-728"
      }, 
      "inputs": [[0, 0, 0]]
    }, 
    {
      "op": "slice_axis", 
      "name": "deeparpredictionnetwork0_slice_axis28", 
      "attrs": {
        "axis": "1", 
        "begin": "-757", 
        "end": "-729"
      }, 
      "inputs": [[0, 0, 0]]
    }, 
    {
      "op": "slice_axis", 
      "name": "deeparpredictionnetwork0_slice_axis29", 
      "attrs": {
        "axis": "1", 
        "begin": "-1119", 
        "end": "-1091"
      }, 
      "inputs": [[0, 0, 0]]
    }, 
    {
      "op": "slice_axis", 
      "name": "deeparpredictionnetwork0_slice_axis30", 
      "attrs": {
        "axis": "1", 
        "begin": "-1120", 
        "end": "-1092"
      }, 
      "inputs": [[0, 0, 0]]
    }, 
    {
      "op": "slice_axis", 
      "name": "deeparpredictionnetwork0_slice_axis31", 
      "attrs": {
        "axis": "1", 
        "begin": "-1121", 
        "end": "-1093"
      }, 
      "inputs": [[0, 0, 0]]
    }, 
    {
      "op": "stack", 
      "name": "deeparpredictionnetwork0_stack0", 
      "attrs": {
        "axis": "-1", 
        "num_args": "30"
      }, 
      "inputs": [
        [75, 0, 0], 
        [76, 0, 0], 
        [77, 0, 0], 
        [78, 0, 0], 
        [79, 0, 0], 
        [80, 0, 0], 
        [81, 0, 0], 
        [82, 0, 0], 
        [83, 0, 0], 
        [84, 0, 0], 
        [85, 0, 0], 
        [86, 0, 0], 
        [87, 0, 0], 
        [88, 0, 0], 
        [89, 0, 0], 
        [90, 0, 0], 
        [91, 0, 0], 
        [92, 0, 0], 
        [93, 0, 0], 
        [94, 0, 0], 
        [95, 0, 0], 
        [96, 0, 0], 
        [97, 0, 0], 
        [98, 0, 0], 
        [99, 0, 0], 
        [100, 0, 0], 
        [101, 0, 0], 
        [102, 0, 0], 
        [103, 0, 0], 
        [104, 0, 0]
      ]
    }, 
    {
      "op": "expand_dims", 
      "name": "deeparpredictionnetwork0_expand_dims1", 
      "attrs": {"axis": "-1"}, 
      "inputs": [[52, 0, 0]]
    }, 
    {
      "op": "broadcast_div", 
      "name": "deeparpredictionnetwork0_broadcast_div0", 
      "inputs": [[105, 0, 0], [106, 0, 0]]
    }, 
    {
      "op": "Reshape", 
      "name": "deeparpredictionnetwork0_reshape0", 
      "attrs": {"shape": "(-1, 28, 30)"}, 
      "inputs": [[107, 0, 0]]
    }, 
    {
      "op": "null", 
      "name": "data2", 
      "inputs": []
    }, 
    {
      "op": "slice_axis", 
      "name": "deeparpredictionnetwork0_slice_axis0", 
      "attrs": {
        "axis": "1", 
        "begin": "1093", 
        "end": "None"
      }, 
      "inputs": [[109, 0, 0]]
    }, 
    {
      "op": "expand_dims", 
      "name": "deeparpredictionnetwork0_expand_dims0", 
      "attrs": {"axis": "1"}, 
      "inputs": [[67, 0, 0]]
    }, 
    {
      "op": "repeat", 
      "name": "deeparpredictionnetwork0_repeat0", 
      "attrs": {
        "axis": "1", 
        "repeats": "28"
      }, 
      "inputs": [[111, 0, 0]]
    }, 
    {
      "op": "Concat", 
      "name": "deeparpredictionnetwork0_concat1", 
      "attrs": {
        "dim": "-1", 
        "num_args": "3"
      }, 
      "inputs": [[108, 0, 0], [110, 0, 0], [112, 0, 0]]
    }, 
    {
      "op": "SliceChannel", 
      "name": "deeparpredictionnetwork0_split0", 
      "attrs": {
        "axis": "1", 
        "num_outputs": "28", 
        "squeeze_axis": "1"
      }, 
      "inputs": [[113, 0, 0]]
    }, 
    {
      "op": "FullyConnected", 
      "name": "deeparpredictionnetwork0_lstm0_t27_i2h", 
      "attrs": {"num_hidden": "160"}, 
      "inputs": [[114, 27, 0], [72, 0, 0], [73, 0, 0]]
    }, 
    {
      "op": "FullyConnected", 
      "name": "deeparpredictionnetwork0_lstm0_t26_i2h", 
      "attrs": {"num_hidden": "160"}, 
      "inputs": [[114, 26, 0], [72, 0, 0], [73, 0, 0]]
    }, 
    {
      "op": "FullyConnected", 
      "name": "deeparpredictionnetwork0_lstm0_t25_i2h", 
      "attrs": {"num_hidden": "160"}, 
      "inputs": [[114, 25, 0], [72, 0, 0], [73, 0, 0]]
    }, 
    {
      "op": "FullyConnected", 
      "name": "deeparpredictionnetwork0_lstm0_t24_i2h", 
      "attrs": {"num_hidden": "160"}, 
      "inputs": [[114, 24, 0], [72, 0, 0], [73, 0, 0]]
    }, 
    {
      "op": "FullyConnected", 
      "name": "deeparpredictionnetwork0_lstm0_t23_i2h", 
      "attrs": {"num_hidden": "160"}, 
      "inputs": [[114, 23, 0], [72, 0, 0], [73, 0, 0]]
    }, 
    {
      "op": "FullyConnected", 
      "name": "deeparpredictionnetwork0_lstm0_t22_i2h", 
      "attrs": {"num_hidden": "160"}, 
      "inputs": [[114, 22, 0], [72, 0, 0], [73, 0, 0]]
    }, 
    {
      "op": "FullyConnected", 
      "name": "deeparpredictionnetwork0_lstm0_t21_i2h", 
      "attrs": {"num_hidden": "160"}, 
      "inputs": [[114, 21, 0], [72, 0, 0], [73, 0, 0]]
    }, 
    {
      "op": "FullyConnected", 
      "name": "deeparpredictionnetwork0_lstm0_t20_i2h", 
      "attrs": {"num_hidden": "160"}, 
      "inputs": [[114, 20, 0], [72, 0, 0], [73, 0, 0]]
    }, 
    {
      "op": "FullyConnected", 
      "name": "deeparpredictionnetwork0_lstm0_t19_i2h", 
      "attrs": {"num_hidden": "160"}, 
      "inputs": [[114, 19, 0], [72, 0, 0], [73, 0, 0]]
    }, 
    {
      "op": "FullyConnected", 
      "name": "deeparpredictionnetwork0_lstm0_t18_i2h", 
      "attrs": {"num_hidden": "160"}, 
      "inputs": [[114, 18, 0], [72, 0, 0], [73, 0, 0]]
    }, 
    {
      "op": "FullyConnected", 
      "name": "deeparpredictionnetwork0_lstm0_t17_i2h", 
      "attrs": {"num_hidden": "160"}, 
      "inputs": [[114, 17, 0], [72, 0, 0], [73, 0, 0]]
    }, 
    {
      "op": "FullyConnected", 
      "name": "deeparpredictionnetwork0_lstm0_t16_i2h", 
      "attrs": {"num_hidden": "160"}, 
      "inputs": [[114, 16, 0], [72, 0, 0], [73, 0, 0]]
    }, 
    {
      "op": "FullyConnected", 
      "name": "deeparpredictionnetwork0_lstm0_t15_i2h", 
      "attrs": {"num_hidden": "160"}, 
      "inputs": [[114, 15, 0], [72, 0, 0], [73, 0, 0]]
    }, 
    {
      "op": "FullyConnected", 
      "name": "deeparpredictionnetwork0_lstm0_t14_i2h", 
      "attrs": {"num_hidden": "160"}, 
      "inputs": [[114, 14, 0], [72, 0, 0], [73, 0, 0]]
    }, 
    {
      "op": "FullyConnected", 
      "name": "deeparpredictionnetwork0_lstm0_t13_i2h", 
      "attrs": {"num_hidden": "160"}, 
      "inputs": [[114, 13, 0], [72, 0, 0], [73, 0, 0]]
    }, 
    {
      "op": "FullyConnected", 
      "name": "deeparpredictionnetwork0_lstm0_t12_i2h", 
      "attrs": {"num_hidden": "160"}, 
      "inputs": [[114, 12, 0], [72, 0, 0], [73, 0, 0]]
    }, 
    {
      "op": "FullyConnected", 
      "name": "deeparpredictionnetwork0_lstm0_t11_i2h", 
      "attrs": {"num_hidden": "160"}, 
      "inputs": [[114, 11, 0], [72, 0, 0], [73, 0, 0]]
    }, 
    {
      "op": "FullyConnected", 
      "name": "deeparpredictionnetwork0_lstm0_t10_i2h", 
      "attrs": {"num_hidden": "160"}, 
      "inputs": [[114, 10, 0], [72, 0, 0], [73, 0, 0]]
    }, 
    {
      "op": "FullyConnected", 
      "name": "deeparpredictionnetwork0_lstm0_t9_i2h", 
      "attrs": {"num_hidden": "160"}, 
      "inputs": [[114, 9, 0], [72, 0, 0], [73, 0, 0]]
    }, 
    {
      "op": "FullyConnected", 
      "name": "deeparpredictionnetwork0_lstm0_t8_i2h", 
      "attrs": {"num_hidden": "160"}, 
      "inputs": [[114, 8, 0], [72, 0, 0], [73, 0, 0]]
    }, 
    {
      "op": "FullyConnected", 
      "name": "deeparpredictionnetwork0_lstm0_t7_i2h", 
      "attrs": {"num_hidden": "160"}, 
      "inputs": [[114, 7, 0], [72, 0, 0], [73, 0, 0]]
    }, 
    {
      "op": "FullyConnected", 
      "name": "deeparpredictionnetwork0_lstm0_t6_i2h", 
      "attrs": {"num_hidden": "160"}, 
      "inputs": [[114, 6, 0], [72, 0, 0], [73, 0, 0]]
    }, 
    {
      "op": "FullyConnected", 
      "name": "deeparpredictionnetwork0_lstm0_t5_i2h", 
      "attrs": {"num_hidden": "160"}, 
      "inputs": [[114, 5, 0], [72, 0, 0], [73, 0, 0]]
    }, 
    {
      "op": "FullyConnected", 
      "name": "deeparpredictionnetwork0_lstm0_t4_i2h", 
      "attrs": {"num_hidden": "160"}, 
      "inputs": [[114, 4, 0], [72, 0, 0], [73, 0, 0]]
    }, 
    {
      "op": "FullyConnected", 
      "name": "deeparpredictionnetwork0_lstm0_t3_i2h", 
      "attrs": {"num_hidden": "160"}, 
      "inputs": [[114, 3, 0], [72, 0, 0], [73, 0, 0]]
    }, 
    {
      "op": "FullyConnected", 
      "name": "deeparpredictionnetwork0_lstm0_t2_i2h", 
      "attrs": {"num_hidden": "160"}, 
      "inputs": [[114, 2, 0], [72, 0, 0], [73, 0, 0]]
    }, 
    {
      "op": "FullyConnected", 
      "name": "deeparpredictionnetwork0_lstm0_t1_i2h", 
      "attrs": {"num_hidden": "160"}, 
      "inputs": [[114, 1, 0], [72, 0, 0], [73, 0, 0]]
    }, 
    {
      "op": "FullyConnected", 
      "name": "deeparpredictionnetwork0_lstm0_t0_i2h", 
      "attrs": {"num_hidden": "160"}, 
      "inputs": [[114, 0, 0], [72, 0, 0], [73, 0, 0]]
    }, 
    {
      "op": "null", 
      "name": "data6", 
      "inputs": []
    }, 
    {
      "op": "slice_axis", 
      "name": "deeparpredictionnetwork0_slice_axis1", 
      "attrs": {
        "axis": "1", 
        "begin": "1093", 
        "end": "None"
      }, 
      "inputs": [[143, 0, 0]]
    }, 
    {
      "op": "slice_axis", 
      "name": "deeparpredictionnetwork0_slice_axis34", 
      "attrs": {
        "axis": "1", 
        "begin": "0", 
        "end": "1"
      }, 
      "inputs": [[144, 0, 0]]
    }, 
    {
      "op": "repeat", 
      "name": "deeparpredictionnetwork0_repeat1", 
      "attrs": {
        "axis": "1", 
        "repeats": "40"
      }, 
      "inputs": [[145, 0, 0]]
    }, 
    {
      "op": "_zeros", 
      "name": "deeparpredictionnetwork0_deeparpredictionnetwork0_lstm0_begin_state_0", 
      "attrs": {
        "__layout__": "NC", 
        "dtype": "float32", 
        "shape": "(1, 40)"
      }, 
      "inputs": []
    }, 
    {
      "op": "where", 
      "name": "deeparpredictionnetwork0_where0", 
      "inputs": [[146, 0, 0], [147, 0, 0], [147, 0, 0]]
    }, 
    {
      "op": "null", 
      "name": "deeparpredictionnetwork0_lstm0_h2h_weight", 
      "attrs": {
        "__dtype__": "0", 
        "__lr_mult__": "1.0", 
        "__shape__": "(160, 40)", 
        "__storage_type__": "0", 
        "__wd_mult__": "1.0"
      }, 
      "inputs": []
    }, 
    {
      "op": "null", 
      "name": "deeparpredictionnetwork0_lstm0_h2h_bias", 
      "attrs": {
        "__dtype__": "0", 
        "__init__": "zeros", 
        "__lr_mult__": "1.0", 
        "__shape__": "(160,)", 
        "__storage_type__": "0", 
        "__wd_mult__": "1.0"
      }, 
      "inputs": []
    }, 
    {
      "op": "FullyConnected", 
      "name": "deeparpredictionnetwork0_lstm0_t0_h2h", 
      "attrs": {"num_hidden": "160"}, 
      "inputs": [[148, 0, 0], [149, 0, 0], [150, 0, 0]]
    }, 
    {
      "op": "elemwise_add", 
      "name": "deeparpredictionnetwork0_lstm0_t0_plus0", 
      "inputs": [[142, 0, 0], [151, 0, 0]]
    }, 
    {
      "op": "SliceChannel", 
      "name": "deeparpredictionnetwork0_lstm0_t0_slice", 
      "attrs": {"num_outputs": "4"}, 
      "inputs": [[152, 0, 0]]
    }, 
    {
      "op": "sigmoid", 
      "name": "deeparpredictionnetwork0_lstm0_t0_o", 
      "inputs": [[153, 3, 0]]
    }, 
    {
      "op": "sigmoid", 
      "name": "deeparpredictionnetwork0_lstm0_t0_f", 
      "inputs": [[153, 1, 0]]
    }, 
    {
      "op": "slice_axis", 
      "name": "deeparpredictionnetwork0_slice_axis35", 
      "attrs": {
        "axis": "1", 
        "begin": "0", 
        "end": "1"
      }, 
      "inputs": [[144, 0, 0]]
    }, 
    {
      "op": "repeat", 
      "name": "deeparpredictionnetwork0_repeat2", 
      "attrs": {
        "axis": "1", 
        "repeats": "40"
      }, 
      "inputs": [[156, 0, 0]]
    }, 
    {
      "op": "_zeros", 
      "name": "deeparpredictionnetwork0_deeparpredictionnetwork0_lstm0_begin_state_1", 
      "attrs": {
        "__layout__": "NC", 
        "dtype": "float32", 
        "shape": "(1, 40)"
      }, 
      "inputs": []
    }, 
    {
      "op": "where", 
      "name": "deeparpredictionnetwork0_where1", 
      "inputs": [[157, 0, 0], [158, 0, 0], [158, 0, 0]]
    }, 
    {
      "op": "elemwise_mul", 
      "name": "deeparpredictionnetwork0_lstm0_t0_mul0", 
      "inputs": [[155, 0, 0], [159, 0, 0]]
    }, 
    {
      "op": "sigmoid", 
      "name": "deeparpredictionnetwork0_lstm0_t0_i", 
      "inputs": [[153, 0, 0]]
    }, 
    {
      "op": "tanh", 
      "name": "deeparpredictionnetwork0_lstm0_t0_c", 
      "inputs": [[153, 2, 0]]
    }, 
    {
      "op": "elemwise_mul", 
      "name": "deeparpredictionnetwork0_lstm0_t0_mul1", 
      "inputs": [[161, 0, 0], [162, 0, 0]]
    }, 
    {
      "op": "elemwise_add", 
      "name": "deeparpredictionnetwork0_lstm0_t0_state", 
      "inputs": [[160, 0, 0], [163, 0, 0]]
    }, 
    {
      "op": "Activation", 
      "name": "deeparpredictionnetwork0_lstm0_t0_activation0", 
      "attrs": {"act_type": "tanh"}, 
      "inputs": [[164, 0, 0]]
    }, 
    {
      "op": "elemwise_mul", 
      "name": "deeparpredictionnetwork0_lstm0_t0_out", 
      "inputs": [[154, 0, 0], [165, 0, 0]]
    }, 
    {
      "op": "ones_like", 
      "name": "deeparpredictionnetwork0_deeparpredictionnetwork0_lstm0_zoneoutones_like0", 
      "inputs": [[166, 0, 0]]
    }, 
    {
      "op": "Dropout", 
      "name": "deeparpredictionnetwork0_deeparpredictionnetwork0_lstm0_zoneoutdropout0", 
      "attrs": {"p": "0.1"}, 
      "inputs": [[167, 0, 0]]
    }, 
    {
      "op": "where", 
      "name": "deeparpredictionnetwork0_deeparpredictionnetwork0_lstm0_zoneoutwhere0", 
      "inputs": [[168, 0, 0], [166, 0, 0], [148, 0, 0]]
    }, 
    {
      "op": "FullyConnected", 
      "name": "deeparpredictionnetwork0_lstm0_t1_h2h", 
      "attrs": {"num_hidden": "160"}, 
      "inputs": [[169, 0, 0], [149, 0, 0], [150, 0, 0]]
    }, 
    {
      "op": "elemwise_add", 
      "name": "deeparpredictionnetwork0_lstm0_t1_plus0", 
      "inputs": [[141, 0, 0], [170, 0, 0]]
    }, 
    {
      "op": "SliceChannel", 
      "name": "deeparpredictionnetwork0_lstm0_t1_slice", 
      "attrs": {"num_outputs": "4"}, 
      "inputs": [[171, 0, 0]]
    }, 
    {
      "op": "sigmoid", 
      "name": "deeparpredictionnetwork0_lstm0_t1_o", 
      "inputs": [[172, 3, 0]]
    }, 
    {
      "op": "sigmoid", 
      "name": "deeparpredictionnetwork0_lstm0_t1_f", 
      "inputs": [[172, 1, 0]]
    }, 
    {
      "op": "ones_like", 
      "name": "deeparpredictionnetwork0_deeparpredictionnetwork0_lstm0_zoneoutones_like1", 
      "inputs": [[164, 0, 0]]
    }, 
    {
      "op": "Dropout", 
      "name": "deeparpredictionnetwork0_deeparpredictionnetwork0_lstm0_zoneoutdropout1", 
      "attrs": {"p": "0.1"}, 
      "inputs": [[175, 0, 0]]
    }, 
    {
      "op": "where", 
      "name": "deeparpredictionnetwork0_deeparpredictionnetwork0_lstm0_zoneoutwhere1", 
      "inputs": [[176, 0, 0], [164, 0, 0], [159, 0, 0]]
    }, 
    {
      "op": "elemwise_mul", 
      "name": "deeparpredictionnetwork0_lstm0_t1_mul0", 
      "inputs": [[174, 0, 0], [177, 0, 0]]
    }, 
    {
      "op": "sigmoid", 
      "name": "deeparpredictionnetwork0_lstm0_t1_i", 
      "inputs": [[172, 0, 0]]
    }, 
    {
      "op": "tanh", 
      "name": "deeparpredictionnetwork0_lstm0_t1_c", 
      "inputs": [[172, 2, 0]]
    }, 
    {
      "op": "elemwise_mul", 
      "name": "deeparpredictionnetwork0_lstm0_t1_mul1", 
      "inputs": [[179, 0, 0], [180, 0, 0]]
    }, 
    {
      "op": "elemwise_add", 
      "name": "deeparpredictionnetwork0_lstm0_t1_state", 
      "inputs": [[178, 0, 0], [181, 0, 0]]
    }, 
    {
      "op": "Activation", 
      "name": "deeparpredictionnetwork0_lstm0_t1_activation0", 
      "attrs": {"act_type": "tanh"}, 
      "inputs": [[182, 0, 0]]
    }, 
    {
      "op": "elemwise_mul", 
      "name": "deeparpredictionnetwork0_lstm0_t1_out", 
      "inputs": [[173, 0, 0], [183, 0, 0]]
    }, 
    {
      "op": "ones_like", 
      "name": "deeparpredictionnetwork0_deeparpredictionnetwork0_lstm0_zoneoutones_like0", 
      "inputs": [[184, 0, 0]]
    }, 
    {
      "op": "Dropout", 
      "name": "deeparpredictionnetwork0_deeparpredictionnetwork0_lstm0_zoneoutdropout0", 
      "attrs": {"p": "0.1"}, 
      "inputs": [[185, 0, 0]]
    }, 
    {
      "op": "where", 
      "name": "deeparpredictionnetwork0_deeparpredictionnetwork0_lstm0_zoneoutwhere0", 
      "inputs": [[186, 0, 0], [184, 0, 0], [169, 0, 0]]
    }, 
    {
      "op": "FullyConnected", 
      "name": "deeparpredictionnetwork0_lstm0_t2_h2h", 
      "attrs": {"num_hidden": "160"}, 
      "inputs": [[187, 0, 0], [149, 0, 0], [150, 0, 0]]
    }, 
    {
      "op": "elemwise_add", 
      "name": "deeparpredictionnetwork0_lstm0_t2_plus0", 
      "inputs": [[140, 0, 0], [188, 0, 0]]
    }, 
    {
      "op": "SliceChannel", 
      "name": "deeparpredictionnetwork0_lstm0_t2_slice", 
      "attrs": {"num_outputs": "4"}, 
      "inputs": [[189, 0, 0]]
    }, 
    {
      "op": "sigmoid", 
      "name": "deeparpredictionnetwork0_lstm0_t2_o", 
      "inputs": [[190, 3, 0]]
    }, 
    {
      "op": "sigmoid", 
      "name": "deeparpredictionnetwork0_lstm0_t2_f", 
      "inputs": [[190, 1, 0]]
    }, 
    {
      "op": "ones_like", 
      "name": "deeparpredictionnetwork0_deeparpredictionnetwork0_lstm0_zoneoutones_like1", 
      "inputs": [[182, 0, 0]]
    }, 
    {
      "op": "Dropout", 
      "name": "deeparpredictionnetwork0_deeparpredictionnetwork0_lstm0_zoneoutdropout1", 
      "attrs": {"p": "0.1"}, 
      "inputs": [[193, 0, 0]]
    }, 
    {
      "op": "where", 
      "name": "deeparpredictionnetwork0_deeparpredictionnetwork0_lstm0_zoneoutwhere1", 
      "inputs": [[194, 0, 0], [182, 0, 0], [177, 0, 0]]
    }, 
    {
      "op": "elemwise_mul", 
      "name": "deeparpredictionnetwork0_lstm0_t2_mul0", 
      "inputs": [[192, 0, 0], [195, 0, 0]]
    }, 
    {
      "op": "sigmoid", 
      "name": "deeparpredictionnetwork0_lstm0_t2_i", 
      "inputs": [[190, 0, 0]]
    }, 
    {
      "op": "tanh", 
      "name": "deeparpredictionnetwork0_lstm0_t2_c", 
      "inputs": [[190, 2, 0]]
    }, 
    {
      "op": "elemwise_mul", 
      "name": "deeparpredictionnetwork0_lstm0_t2_mul1", 
      "inputs": [[197, 0, 0], [198, 0, 0]]
    }, 
    {
      "op": "elemwise_add", 
      "name": "deeparpredictionnetwork0_lstm0_t2_state", 
      "inputs": [[196, 0, 0], [199, 0, 0]]
    }, 
    {
      "op": "Activation", 
      "name": "deeparpredictionnetwork0_lstm0_t2_activation0", 
      "attrs": {"act_type": "tanh"}, 
      "inputs": [[200, 0, 0]]
    }, 
    {
      "op": "elemwise_mul", 
      "name": "deeparpredictionnetwork0_lstm0_t2_out", 
      "inputs": [[191, 0, 0], [201, 0, 0]]
    }, 
    {
      "op": "ones_like", 
      "name": "deeparpredictionnetwork0_deeparpredictionnetwork0_lstm0_zoneoutones_like0", 
      "inputs": [[202, 0, 0]]
    }, 
    {
      "op": "Dropout", 
      "name": "deeparpredictionnetwork0_deeparpredictionnetwork0_lstm0_zoneoutdropout0", 
      "attrs": {"p": "0.1"}, 
      "inputs": [[203, 0, 0]]
    }, 
    {
      "op": "where", 
      "name": "deeparpredictionnetwork0_deeparpredictionnetwork0_lstm0_zoneoutwhere0", 
      "inputs": [[204, 0, 0], [202, 0, 0], [187, 0, 0]]
    }, 
    {
      "op": "FullyConnected", 
      "name": "deeparpredictionnetwork0_lstm0_t3_h2h", 
      "attrs": {"num_hidden": "160"}, 
      "inputs": [[205, 0, 0], [149, 0, 0], [150, 0, 0]]
    }, 
    {
      "op": "elemwise_add", 
      "name": "deeparpredictionnetwork0_lstm0_t3_plus0", 
      "inputs": [[139, 0, 0], [206, 0, 0]]
    }, 
    {
      "op": "SliceChannel", 
      "name": "deeparpredictionnetwork0_lstm0_t3_slice", 
      "attrs": {"num_outputs": "4"}, 
      "inputs": [[207, 0, 0]]
    }, 
    {
      "op": "sigmoid", 
      "name": "deeparpredictionnetwork0_lstm0_t3_o", 
      "inputs": [[208, 3, 0]]
    }, 
    {
      "op": "sigmoid", 
      "name": "deeparpredictionnetwork0_lstm0_t3_f", 
      "inputs": [[208, 1, 0]]
    }, 
    {
      "op": "ones_like", 
      "name": "deeparpredictionnetwork0_deeparpredictionnetwork0_lstm0_zoneoutones_like1", 
      "inputs": [[200, 0, 0]]
    }, 
    {
      "op": "Dropout", 
      "name": "deeparpredictionnetwork0_deeparpredictionnetwork0_lstm0_zoneoutdropout1", 
      "attrs": {"p": "0.1"}, 
      "inputs": [[211, 0, 0]]
    }, 
    {
      "op": "where", 
      "name": "deeparpredictionnetwork0_deeparpredictionnetwork0_lstm0_zoneoutwhere1", 
      "inputs": [[212, 0, 0], [200, 0, 0], [195, 0, 0]]
    }, 
    {
      "op": "elemwise_mul", 
      "name": "deeparpredictionnetwork0_lstm0_t3_mul0", 
      "inputs": [[210, 0, 0], [213, 0, 0]]
    }, 
    {
      "op": "sigmoid", 
      "name": "deeparpredictionnetwork0_lstm0_t3_i", 
      "inputs": [[208, 0, 0]]
    }, 
    {
      "op": "tanh", 
      "name": "deeparpredictionnetwork0_lstm0_t3_c", 
      "inputs": [[208, 2, 0]]
    }, 
    {
      "op": "elemwise_mul", 
      "name": "deeparpredictionnetwork0_lstm0_t3_mul1", 
      "inputs": [[215, 0, 0], [216, 0, 0]]
    }, 
    {
      "op": "elemwise_add", 
      "name": "deeparpredictionnetwork0_lstm0_t3_state", 
      "inputs": [[214, 0, 0], [217, 0, 0]]
    }, 
    {
      "op": "Activation", 
      "name": "deeparpredictionnetwork0_lstm0_t3_activation0", 
      "attrs": {"act_type": "tanh"}, 
      "inputs": [[218, 0, 0]]
    }, 
    {
      "op": "elemwise_mul", 
      "name": "deeparpredictionnetwork0_lstm0_t3_out", 
      "inputs": [[209, 0, 0], [219, 0, 0]]
    }, 
    {
      "op": "ones_like", 
      "name": "deeparpredictionnetwork0_deeparpredictionnetwork0_lstm0_zoneoutones_like0", 
      "inputs": [[220, 0, 0]]
    }, 
    {
      "op": "Dropout", 
      "name": "deeparpredictionnetwork0_deeparpredictionnetwork0_lstm0_zoneoutdropout0", 
      "attrs": {"p": "0.1"}, 
      "inputs": [[221, 0, 0]]
    }, 
    {
      "op": "where", 
      "name": "deeparpredictionnetwork0_deeparpredictionnetwork0_lstm0_zoneoutwhere0", 
      "inputs": [[222, 0, 0], [220, 0, 0], [205, 0, 0]]
    }, 
    {
      "op": "FullyConnected", 
      "name": "deeparpredictionnetwork0_lstm0_t4_h2h", 
      "attrs": {"num_hidden": "160"}, 
      "inputs": [[223, 0, 0], [149, 0, 0], [150, 0, 0]]
    }, 
    {
      "op": "elemwise_add", 
      "name": "deeparpredictionnetwork0_lstm0_t4_plus0", 
      "inputs": [[138, 0, 0], [224, 0, 0]]
    }, 
    {
      "op": "SliceChannel", 
      "name": "deeparpredictionnetwork0_lstm0_t4_slice", 
      "attrs": {"num_outputs": "4"}, 
      "inputs": [[225, 0, 0]]
    }, 
    {
      "op": "sigmoid", 
      "name": "deeparpredictionnetwork0_lstm0_t4_o", 
      "inputs": [[226, 3, 0]]
    }, 
    {
      "op": "sigmoid", 
      "name": "deeparpredictionnetwork0_lstm0_t4_f", 
      "inputs": [[226, 1, 0]]
    }, 
    {
      "op": "ones_like", 
      "name": "deeparpredictionnetwork0_deeparpredictionnetwork0_lstm0_zoneoutones_like1", 
      "inputs": [[218, 0, 0]]
    }, 
    {
      "op": "Dropout", 
      "name": "deeparpredictionnetwork0_deeparpredictionnetwork0_lstm0_zoneoutdropout1", 
      "attrs": {"p": "0.1"}, 
      "inputs": [[229, 0, 0]]
    }, 
    {
      "op": "where", 
      "name": "deeparpredictionnetwork0_deeparpredictionnetwork0_lstm0_zoneoutwhere1", 
      "inputs": [[230, 0, 0], [218, 0, 0], [213, 0, 0]]
    }, 
    {
      "op": "elemwise_mul", 
      "name": "deeparpredictionnetwork0_lstm0_t4_mul0", 
      "inputs": [[228, 0, 0], [231, 0, 0]]
    }, 
    {
      "op": "sigmoid", 
      "name": "deeparpredictionnetwork0_lstm0_t4_i", 
      "inputs": [[226, 0, 0]]
    }, 
    {
      "op": "tanh", 
      "name": "deeparpredictionnetwork0_lstm0_t4_c", 
      "inputs": [[226, 2, 0]]
    }, 
    {
      "op": "elemwise_mul", 
      "name": "deeparpredictionnetwork0_lstm0_t4_mul1", 
      "inputs": [[233, 0, 0], [234, 0, 0]]
    }, 
    {
      "op": "elemwise_add", 
      "name": "deeparpredictionnetwork0_lstm0_t4_state", 
      "inputs": [[232, 0, 0], [235, 0, 0]]
    }, 
    {
      "op": "Activation", 
      "name": "deeparpredictionnetwork0_lstm0_t4_activation0", 
      "attrs": {"act_type": "tanh"}, 
      "inputs": [[236, 0, 0]]
    }, 
    {
      "op": "elemwise_mul", 
      "name": "deeparpredictionnetwork0_lstm0_t4_out", 
      "inputs": [[227, 0, 0], [237, 0, 0]]
    }, 
    {
      "op": "ones_like", 
      "name": "deeparpredictionnetwork0_deeparpredictionnetwork0_lstm0_zoneoutones_like0", 
      "inputs": [[238, 0, 0]]
    }, 
    {
      "op": "Dropout", 
      "name": "deeparpredictionnetwork0_deeparpredictionnetwork0_lstm0_zoneoutdropout0", 
      "attrs": {"p": "0.1"}, 
      "inputs": [[239, 0, 0]]
    }, 
    {
      "op": "where", 
      "name": "deeparpredictionnetwork0_deeparpredictionnetwork0_lstm0_zoneoutwhere0", 
      "inputs": [[240, 0, 0], [238, 0, 0], [223, 0, 0]]
    }, 
    {
      "op": "FullyConnected", 
      "name": "deeparpredictionnetwork0_lstm0_t5_h2h", 
      "attrs": {"num_hidden": "160"}, 
      "inputs": [[241, 0, 0], [149, 0, 0], [150, 0, 0]]
    }, 
    {
      "op": "elemwise_add", 
      "name": "deeparpredictionnetwork0_lstm0_t5_plus0", 
      "inputs": [[137, 0, 0], [242, 0, 0]]
    }, 
    {
      "op": "SliceChannel", 
      "name": "deeparpredictionnetwork0_lstm0_t5_slice", 
      "attrs": {"num_outputs": "4"}, 
      "inputs": [[243, 0, 0]]
    }, 
    {
      "op": "sigmoid", 
      "name": "deeparpredictionnetwork0_lstm0_t5_o", 
      "inputs": [[244, 3, 0]]
    }, 
    {
      "op": "sigmoid", 
      "name": "deeparpredictionnetwork0_lstm0_t5_f", 
      "inputs": [[244, 1, 0]]
    }, 
    {
      "op": "ones_like", 
      "name": "deeparpredictionnetwork0_deeparpredictionnetwork0_lstm0_zoneoutones_like1", 
      "inputs": [[236, 0, 0]]
    }, 
    {
      "op": "Dropout", 
      "name": "deeparpredictionnetwork0_deeparpredictionnetwork0_lstm0_zoneoutdropout1", 
      "attrs": {"p": "0.1"}, 
      "inputs": [[247, 0, 0]]
    }, 
    {
      "op": "where", 
      "name": "deeparpredictionnetwork0_deeparpredictionnetwork0_lstm0_zoneoutwhere1", 
      "inputs": [[248, 0, 0], [236, 0, 0], [231, 0, 0]]
    }, 
    {
      "op": "elemwise_mul", 
      "name": "deeparpredictionnetwork0_lstm0_t5_mul0", 
      "inputs": [[246, 0, 0], [249, 0, 0]]
    }, 
    {
      "op": "sigmoid", 
      "name": "deeparpredictionnetwork0_lstm0_t5_i", 
      "inputs": [[244, 0, 0]]
    }, 
    {
      "op": "tanh", 
      "name": "deeparpredictionnetwork0_lstm0_t5_c", 
      "inputs": [[244, 2, 0]]
    }, 
    {
      "op": "elemwise_mul", 
      "name": "deeparpredictionnetwork0_lstm0_t5_mul1", 
      "inputs": [[251, 0, 0], [252, 0, 0]]
    }, 
    {
      "op": "elemwise_add", 
      "name": "deeparpredictionnetwork0_lstm0_t5_state", 
      "inputs": [[250, 0, 0], [253, 0, 0]]
    }, 
    {
      "op": "Activation", 
      "name": "deeparpredictionnetwork0_lstm0_t5_activation0", 
      "attrs": {"act_type": "tanh"}, 
      "inputs": [[254, 0, 0]]
    }, 
    {
      "op": "elemwise_mul", 
      "name": "deeparpredictionnetwork0_lstm0_t5_out", 
      "inputs": [[245, 0, 0], [255, 0, 0]]
    }, 
    {
      "op": "ones_like", 
      "name": "deeparpredictionnetwork0_deeparpredictionnetwork0_lstm0_zoneoutones_like0", 
      "inputs": [[256, 0, 0]]
    }, 
    {
      "op": "Dropout", 
      "name": "deeparpredictionnetwork0_deeparpredictionnetwork0_lstm0_zoneoutdropout0", 
      "attrs": {"p": "0.1"}, 
      "inputs": [[257, 0, 0]]
    }, 
    {
      "op": "where", 
      "name": "deeparpredictionnetwork0_deeparpredictionnetwork0_lstm0_zoneoutwhere0", 
      "inputs": [[258, 0, 0], [256, 0, 0], [241, 0, 0]]
    }, 
    {
      "op": "FullyConnected", 
      "name": "deeparpredictionnetwork0_lstm0_t6_h2h", 
      "attrs": {"num_hidden": "160"}, 
      "inputs": [[259, 0, 0], [149, 0, 0], [150, 0, 0]]
    }, 
    {
      "op": "elemwise_add", 
      "name": "deeparpredictionnetwork0_lstm0_t6_plus0", 
      "inputs": [[136, 0, 0], [260, 0, 0]]
    }, 
    {
      "op": "SliceChannel", 
      "name": "deeparpredictionnetwork0_lstm0_t6_slice", 
      "attrs": {"num_outputs": "4"}, 
      "inputs": [[261, 0, 0]]
    }, 
    {
      "op": "sigmoid", 
      "name": "deeparpredictionnetwork0_lstm0_t6_o", 
      "inputs": [[262, 3, 0]]
    }, 
    {
      "op": "sigmoid", 
      "name": "deeparpredictionnetwork0_lstm0_t6_f", 
      "inputs": [[262, 1, 0]]
    }, 
    {
      "op": "ones_like", 
      "name": "deeparpredictionnetwork0_deeparpredictionnetwork0_lstm0_zoneoutones_like1", 
      "inputs": [[254, 0, 0]]
    }, 
    {
      "op": "Dropout", 
      "name": "deeparpredictionnetwork0_deeparpredictionnetwork0_lstm0_zoneoutdropout1", 
      "attrs": {"p": "0.1"}, 
      "inputs": [[265, 0, 0]]
    }, 
    {
      "op": "where", 
      "name": "deeparpredictionnetwork0_deeparpredictionnetwork0_lstm0_zoneoutwhere1", 
      "inputs": [[266, 0, 0], [254, 0, 0], [249, 0, 0]]
    }, 
    {
      "op": "elemwise_mul", 
      "name": "deeparpredictionnetwork0_lstm0_t6_mul0", 
      "inputs": [[264, 0, 0], [267, 0, 0]]
    }, 
    {
      "op": "sigmoid", 
      "name": "deeparpredictionnetwork0_lstm0_t6_i", 
      "inputs": [[262, 0, 0]]
    }, 
    {
      "op": "tanh", 
      "name": "deeparpredictionnetwork0_lstm0_t6_c", 
      "inputs": [[262, 2, 0]]
    }, 
    {
      "op": "elemwise_mul", 
      "name": "deeparpredictionnetwork0_lstm0_t6_mul1", 
      "inputs": [[269, 0, 0], [270, 0, 0]]
    }, 
    {
      "op": "elemwise_add", 
      "name": "deeparpredictionnetwork0_lstm0_t6_state", 
      "inputs": [[268, 0, 0], [271, 0, 0]]
    }, 
    {
      "op": "Activation", 
      "name": "deeparpredictionnetwork0_lstm0_t6_activation0", 
      "attrs": {"act_type": "tanh"}, 
      "inputs": [[272, 0, 0]]
    }, 
    {
      "op": "elemwise_mul", 
      "name": "deeparpredictionnetwork0_lstm0_t6_out", 
      "inputs": [[263, 0, 0], [273, 0, 0]]
    }, 
    {
      "op": "ones_like", 
      "name": "deeparpredictionnetwork0_deeparpredictionnetwork0_lstm0_zoneoutones_like0", 
      "inputs": [[274, 0, 0]]
    }, 
    {
      "op": "Dropout", 
      "name": "deeparpredictionnetwork0_deeparpredictionnetwork0_lstm0_zoneoutdropout0", 
      "attrs": {"p": "0.1"}, 
      "inputs": [[275, 0, 0]]
    }, 
    {
      "op": "where", 
      "name": "deeparpredictionnetwork0_deeparpredictionnetwork0_lstm0_zoneoutwhere0", 
      "inputs": [[276, 0, 0], [274, 0, 0], [259, 0, 0]]
    }, 
    {
      "op": "FullyConnected", 
      "name": "deeparpredictionnetwork0_lstm0_t7_h2h", 
      "attrs": {"num_hidden": "160"}, 
      "inputs": [[277, 0, 0], [149, 0, 0], [150, 0, 0]]
    }, 
    {
      "op": "elemwise_add", 
      "name": "deeparpredictionnetwork0_lstm0_t7_plus0", 
      "inputs": [[135, 0, 0], [278, 0, 0]]
    }, 
    {
      "op": "SliceChannel", 
      "name": "deeparpredictionnetwork0_lstm0_t7_slice", 
      "attrs": {"num_outputs": "4"}, 
      "inputs": [[279, 0, 0]]
    }, 
    {
      "op": "sigmoid", 
      "name": "deeparpredictionnetwork0_lstm0_t7_o", 
      "inputs": [[280, 3, 0]]
    }, 
    {
      "op": "sigmoid", 
      "name": "deeparpredictionnetwork0_lstm0_t7_f", 
      "inputs": [[280, 1, 0]]
    }, 
    {
      "op": "ones_like", 
      "name": "deeparpredictionnetwork0_deeparpredictionnetwork0_lstm0_zoneoutones_like1", 
      "inputs": [[272, 0, 0]]
    }, 
    {
      "op": "Dropout", 
      "name": "deeparpredictionnetwork0_deeparpredictionnetwork0_lstm0_zoneoutdropout1", 
      "attrs": {"p": "0.1"}, 
      "inputs": [[283, 0, 0]]
    }, 
    {
      "op": "where", 
      "name": "deeparpredictionnetwork0_deeparpredictionnetwork0_lstm0_zoneoutwhere1", 
      "inputs": [[284, 0, 0], [272, 0, 0], [267, 0, 0]]
    }, 
    {
      "op": "elemwise_mul", 
      "name": "deeparpredictionnetwork0_lstm0_t7_mul0", 
      "inputs": [[282, 0, 0], [285, 0, 0]]
    }, 
    {
      "op": "sigmoid", 
      "name": "deeparpredictionnetwork0_lstm0_t7_i", 
      "inputs": [[280, 0, 0]]
    }, 
    {
      "op": "tanh", 
      "name": "deeparpredictionnetwork0_lstm0_t7_c", 
      "inputs": [[280, 2, 0]]
    }, 
    {
      "op": "elemwise_mul", 
      "name": "deeparpredictionnetwork0_lstm0_t7_mul1", 
      "inputs": [[287, 0, 0], [288, 0, 0]]
    }, 
    {
      "op": "elemwise_add", 
      "name": "deeparpredictionnetwork0_lstm0_t7_state", 
      "inputs": [[286, 0, 0], [289, 0, 0]]
    }, 
    {
      "op": "Activation", 
      "name": "deeparpredictionnetwork0_lstm0_t7_activation0", 
      "attrs": {"act_type": "tanh"}, 
      "inputs": [[290, 0, 0]]
    }, 
    {
      "op": "elemwise_mul", 
      "name": "deeparpredictionnetwork0_lstm0_t7_out", 
      "inputs": [[281, 0, 0], [291, 0, 0]]
    }, 
    {
      "op": "ones_like", 
      "name": "deeparpredictionnetwork0_deeparpredictionnetwork0_lstm0_zoneoutones_like0", 
      "inputs": [[292, 0, 0]]
    }, 
    {
      "op": "Dropout", 
      "name": "deeparpredictionnetwork0_deeparpredictionnetwork0_lstm0_zoneoutdropout0", 
      "attrs": {"p": "0.1"}, 
      "inputs": [[293, 0, 0]]
    }, 
    {
      "op": "where", 
      "name": "deeparpredictionnetwork0_deeparpredictionnetwork0_lstm0_zoneoutwhere0", 
      "inputs": [[294, 0, 0], [292, 0, 0], [277, 0, 0]]
    }, 
    {
      "op": "FullyConnected", 
      "name": "deeparpredictionnetwork0_lstm0_t8_h2h", 
      "attrs": {"num_hidden": "160"}, 
      "inputs": [[295, 0, 0], [149, 0, 0], [150, 0, 0]]
    }, 
    {
      "op": "elemwise_add", 
      "name": "deeparpredictionnetwork0_lstm0_t8_plus0", 
      "inputs": [[134, 0, 0], [296, 0, 0]]
    }, 
    {
      "op": "SliceChannel", 
      "name": "deeparpredictionnetwork0_lstm0_t8_slice", 
      "attrs": {"num_outputs": "4"}, 
      "inputs": [[297, 0, 0]]
    }, 
    {
      "op": "sigmoid", 
      "name": "deeparpredictionnetwork0_lstm0_t8_o", 
      "inputs": [[298, 3, 0]]
    }, 
    {
      "op": "sigmoid", 
      "name": "deeparpredictionnetwork0_lstm0_t8_f", 
      "inputs": [[298, 1, 0]]
    }, 
    {
      "op": "ones_like", 
      "name": "deeparpredictionnetwork0_deeparpredictionnetwork0_lstm0_zoneoutones_like1", 
      "inputs": [[290, 0, 0]]
    }, 
    {
      "op": "Dropout", 
      "name": "deeparpredictionnetwork0_deeparpredictionnetwork0_lstm0_zoneoutdropout1", 
      "attrs": {"p": "0.1"}, 
      "inputs": [[301, 0, 0]]
    }, 
    {
      "op": "where", 
      "name": "deeparpredictionnetwork0_deeparpredictionnetwork0_lstm0_zoneoutwhere1", 
      "inputs": [[302, 0, 0], [290, 0, 0], [285, 0, 0]]
    }, 
    {
      "op": "elemwise_mul", 
      "name": "deeparpredictionnetwork0_lstm0_t8_mul0", 
      "inputs": [[300, 0, 0], [303, 0, 0]]
    }, 
    {
      "op": "sigmoid", 
      "name": "deeparpredictionnetwork0_lstm0_t8_i", 
      "inputs": [[298, 0, 0]]
    }, 
    {
      "op": "tanh", 
      "name": "deeparpredictionnetwork0_lstm0_t8_c", 
      "inputs": [[298, 2, 0]]
    }, 
    {
      "op": "elemwise_mul", 
      "name": "deeparpredictionnetwork0_lstm0_t8_mul1", 
      "inputs": [[305, 0, 0], [306, 0, 0]]
    }, 
    {
      "op": "elemwise_add", 
      "name": "deeparpredictionnetwork0_lstm0_t8_state", 
      "inputs": [[304, 0, 0], [307, 0, 0]]
    }, 
    {
      "op": "Activation", 
      "name": "deeparpredictionnetwork0_lstm0_t8_activation0", 
      "attrs": {"act_type": "tanh"}, 
      "inputs": [[308, 0, 0]]
    }, 
    {
      "op": "elemwise_mul", 
      "name": "deeparpredictionnetwork0_lstm0_t8_out", 
      "inputs": [[299, 0, 0], [309, 0, 0]]
    }, 
    {
      "op": "ones_like", 
      "name": "deeparpredictionnetwork0_deeparpredictionnetwork0_lstm0_zoneoutones_like0", 
      "inputs": [[310, 0, 0]]
    }, 
    {
      "op": "Dropout", 
      "name": "deeparpredictionnetwork0_deeparpredictionnetwork0_lstm0_zoneoutdropout0", 
      "attrs": {"p": "0.1"}, 
      "inputs": [[311, 0, 0]]
    }, 
    {
      "op": "where", 
      "name": "deeparpredictionnetwork0_deeparpredictionnetwork0_lstm0_zoneoutwhere0", 
      "inputs": [[312, 0, 0], [310, 0, 0], [295, 0, 0]]
    }, 
    {
      "op": "FullyConnected", 
      "name": "deeparpredictionnetwork0_lstm0_t9_h2h", 
      "attrs": {"num_hidden": "160"}, 
      "inputs": [[313, 0, 0], [149, 0, 0], [150, 0, 0]]
    }, 
    {
      "op": "elemwise_add", 
      "name": "deeparpredictionnetwork0_lstm0_t9_plus0", 
      "inputs": [[133, 0, 0], [314, 0, 0]]
    }, 
    {
      "op": "SliceChannel", 
      "name": "deeparpredictionnetwork0_lstm0_t9_slice", 
      "attrs": {"num_outputs": "4"}, 
      "inputs": [[315, 0, 0]]
    }, 
    {
      "op": "sigmoid", 
      "name": "deeparpredictionnetwork0_lstm0_t9_o", 
      "inputs": [[316, 3, 0]]
    }, 
    {
      "op": "sigmoid", 
      "name": "deeparpredictionnetwork0_lstm0_t9_f", 
      "inputs": [[316, 1, 0]]
    }, 
    {
      "op": "ones_like", 
      "name": "deeparpredictionnetwork0_deeparpredictionnetwork0_lstm0_zoneoutones_like1", 
      "inputs": [[308, 0, 0]]
    }, 
    {
      "op": "Dropout", 
      "name": "deeparpredictionnetwork0_deeparpredictionnetwork0_lstm0_zoneoutdropout1", 
      "attrs": {"p": "0.1"}, 
      "inputs": [[319, 0, 0]]
    }, 
    {
      "op": "where", 
      "name": "deeparpredictionnetwork0_deeparpredictionnetwork0_lstm0_zoneoutwhere1", 
      "inputs": [[320, 0, 0], [308, 0, 0], [303, 0, 0]]
    }, 
    {
      "op": "elemwise_mul", 
      "name": "deeparpredictionnetwork0_lstm0_t9_mul0", 
      "inputs": [[318, 0, 0], [321, 0, 0]]
    }, 
    {
      "op": "sigmoid", 
      "name": "deeparpredictionnetwork0_lstm0_t9_i", 
      "inputs": [[316, 0, 0]]
    }, 
    {
      "op": "tanh", 
      "name": "deeparpredictionnetwork0_lstm0_t9_c", 
      "inputs": [[316, 2, 0]]
    }, 
    {
      "op": "elemwise_mul", 
      "name": "deeparpredictionnetwork0_lstm0_t9_mul1", 
      "inputs": [[323, 0, 0], [324, 0, 0]]
    }, 
    {
      "op": "elemwise_add", 
      "name": "deeparpredictionnetwork0_lstm0_t9_state", 
      "inputs": [[322, 0, 0], [325, 0, 0]]
    }, 
    {
      "op": "Activation", 
      "name": "deeparpredictionnetwork0_lstm0_t9_activation0", 
      "attrs": {"act_type": "tanh"}, 
      "inputs": [[326, 0, 0]]
    }, 
    {
      "op": "elemwise_mul", 
      "name": "deeparpredictionnetwork0_lstm0_t9_out", 
      "inputs": [[317, 0, 0], [327, 0, 0]]
    }, 
    {
      "op": "ones_like", 
      "name": "deeparpredictionnetwork0_deeparpredictionnetwork0_lstm0_zoneoutones_like0", 
      "inputs": [[328, 0, 0]]
    }, 
    {
      "op": "Dropout", 
      "name": "deeparpredictionnetwork0_deeparpredictionnetwork0_lstm0_zoneoutdropout0", 
      "attrs": {"p": "0.1"}, 
      "inputs": [[329, 0, 0]]
    }, 
    {
      "op": "where", 
      "name": "deeparpredictionnetwork0_deeparpredictionnetwork0_lstm0_zoneoutwhere0", 
      "inputs": [[330, 0, 0], [328, 0, 0], [313, 0, 0]]
    }, 
    {
      "op": "FullyConnected", 
      "name": "deeparpredictionnetwork0_lstm0_t10_h2h", 
      "attrs": {"num_hidden": "160"}, 
      "inputs": [[331, 0, 0], [149, 0, 0], [150, 0, 0]]
    }, 
    {
      "op": "elemwise_add", 
      "name": "deeparpredictionnetwork0_lstm0_t10_plus0", 
      "inputs": [[132, 0, 0], [332, 0, 0]]
    }, 
    {
      "op": "SliceChannel", 
      "name": "deeparpredictionnetwork0_lstm0_t10_slice", 
      "attrs": {"num_outputs": "4"}, 
      "inputs": [[333, 0, 0]]
    }, 
    {
      "op": "sigmoid", 
      "name": "deeparpredictionnetwork0_lstm0_t10_o", 
      "inputs": [[334, 3, 0]]
    }, 
    {
      "op": "sigmoid", 
      "name": "deeparpredictionnetwork0_lstm0_t10_f", 
      "inputs": [[334, 1, 0]]
    }, 
    {
      "op": "ones_like", 
      "name": "deeparpredictionnetwork0_deeparpredictionnetwork0_lstm0_zoneoutones_like1", 
      "inputs": [[326, 0, 0]]
    }, 
    {
      "op": "Dropout", 
      "name": "deeparpredictionnetwork0_deeparpredictionnetwork0_lstm0_zoneoutdropout1", 
      "attrs": {"p": "0.1"}, 
      "inputs": [[337, 0, 0]]
    }, 
    {
      "op": "where", 
      "name": "deeparpredictionnetwork0_deeparpredictionnetwork0_lstm0_zoneoutwhere1", 
      "inputs": [[338, 0, 0], [326, 0, 0], [321, 0, 0]]
    }, 
    {
      "op": "elemwise_mul", 
      "name": "deeparpredictionnetwork0_lstm0_t10_mul0", 
      "inputs": [[336, 0, 0], [339, 0, 0]]
    }, 
    {
      "op": "sigmoid", 
      "name": "deeparpredictionnetwork0_lstm0_t10_i", 
      "inputs": [[334, 0, 0]]
    }, 
    {
      "op": "tanh", 
      "name": "deeparpredictionnetwork0_lstm0_t10_c", 
      "inputs": [[334, 2, 0]]
    }, 
    {
      "op": "elemwise_mul", 
      "name": "deeparpredictionnetwork0_lstm0_t10_mul1", 
      "inputs": [[341, 0, 0], [342, 0, 0]]
    }, 
    {
      "op": "elemwise_add", 
      "name": "deeparpredictionnetwork0_lstm0_t10_state", 
      "inputs": [[340, 0, 0], [343, 0, 0]]
    }, 
    {
      "op": "Activation", 
      "name": "deeparpredictionnetwork0_lstm0_t10_activation0", 
      "attrs": {"act_type": "tanh"}, 
      "inputs": [[344, 0, 0]]
    }, 
    {
      "op": "elemwise_mul", 
      "name": "deeparpredictionnetwork0_lstm0_t10_out", 
      "inputs": [[335, 0, 0], [345, 0, 0]]
    }, 
    {
      "op": "ones_like", 
      "name": "deeparpredictionnetwork0_deeparpredictionnetwork0_lstm0_zoneoutones_like0", 
      "inputs": [[346, 0, 0]]
    }, 
    {
      "op": "Dropout", 
      "name": "deeparpredictionnetwork0_deeparpredictionnetwork0_lstm0_zoneoutdropout0", 
      "attrs": {"p": "0.1"}, 
      "inputs": [[347, 0, 0]]
    }, 
    {
      "op": "where", 
      "name": "deeparpredictionnetwork0_deeparpredictionnetwork0_lstm0_zoneoutwhere0", 
      "inputs": [[348, 0, 0], [346, 0, 0], [331, 0, 0]]
    }, 
    {
      "op": "FullyConnected", 
      "name": "deeparpredictionnetwork0_lstm0_t11_h2h", 
      "attrs": {"num_hidden": "160"}, 
      "inputs": [[349, 0, 0], [149, 0, 0], [150, 0, 0]]
    }, 
    {
      "op": "elemwise_add", 
      "name": "deeparpredictionnetwork0_lstm0_t11_plus0", 
      "inputs": [[131, 0, 0], [350, 0, 0]]
    }, 
    {
      "op": "SliceChannel", 
      "name": "deeparpredictionnetwork0_lstm0_t11_slice", 
      "attrs": {"num_outputs": "4"}, 
      "inputs": [[351, 0, 0]]
    }, 
    {
      "op": "sigmoid", 
      "name": "deeparpredictionnetwork0_lstm0_t11_o", 
      "inputs": [[352, 3, 0]]
    }, 
    {
      "op": "sigmoid", 
      "name": "deeparpredictionnetwork0_lstm0_t11_f", 
      "inputs": [[352, 1, 0]]
    }, 
    {
      "op": "ones_like", 
      "name": "deeparpredictionnetwork0_deeparpredictionnetwork0_lstm0_zoneoutones_like1", 
      "inputs": [[344, 0, 0]]
    }, 
    {
      "op": "Dropout", 
      "name": "deeparpredictionnetwork0_deeparpredictionnetwork0_lstm0_zoneoutdropout1", 
      "attrs": {"p": "0.1"}, 
      "inputs": [[355, 0, 0]]
    }, 
    {
      "op": "where", 
      "name": "deeparpredictionnetwork0_deeparpredictionnetwork0_lstm0_zoneoutwhere1", 
      "inputs": [[356, 0, 0], [344, 0, 0], [339, 0, 0]]
    }, 
    {
      "op": "elemwise_mul", 
      "name": "deeparpredictionnetwork0_lstm0_t11_mul0", 
      "inputs": [[354, 0, 0], [357, 0, 0]]
    }, 
    {
      "op": "sigmoid", 
      "name": "deeparpredictionnetwork0_lstm0_t11_i", 
      "inputs": [[352, 0, 0]]
    }, 
    {
      "op": "tanh", 
      "name": "deeparpredictionnetwork0_lstm0_t11_c", 
      "inputs": [[352, 2, 0]]
    }, 
    {
      "op": "elemwise_mul", 
      "name": "deeparpredictionnetwork0_lstm0_t11_mul1", 
      "inputs": [[359, 0, 0], [360, 0, 0]]
    }, 
    {
      "op": "elemwise_add", 
      "name": "deeparpredictionnetwork0_lstm0_t11_state", 
      "inputs": [[358, 0, 0], [361, 0, 0]]
    }, 
    {
      "op": "Activation", 
      "name": "deeparpredictionnetwork0_lstm0_t11_activation0", 
      "attrs": {"act_type": "tanh"}, 
      "inputs": [[362, 0, 0]]
    }, 
    {
      "op": "elemwise_mul", 
      "name": "deeparpredictionnetwork0_lstm0_t11_out", 
      "inputs": [[353, 0, 0], [363, 0, 0]]
    }, 
    {
      "op": "ones_like", 
      "name": "deeparpredictionnetwork0_deeparpredictionnetwork0_lstm0_zoneoutones_like0", 
      "inputs": [[364, 0, 0]]
    }, 
    {
      "op": "Dropout", 
      "name": "deeparpredictionnetwork0_deeparpredictionnetwork0_lstm0_zoneoutdropout0", 
      "attrs": {"p": "0.1"}, 
      "inputs": [[365, 0, 0]]
    }, 
    {
      "op": "where", 
      "name": "deeparpredictionnetwork0_deeparpredictionnetwork0_lstm0_zoneoutwhere0", 
      "inputs": [[366, 0, 0], [364, 0, 0], [349, 0, 0]]
    }, 
    {
      "op": "FullyConnected", 
      "name": "deeparpredictionnetwork0_lstm0_t12_h2h", 
      "attrs": {"num_hidden": "160"}, 
      "inputs": [[367, 0, 0], [149, 0, 0], [150, 0, 0]]
    }, 
    {
      "op": "elemwise_add", 
      "name": "deeparpredictionnetwork0_lstm0_t12_plus0", 
      "inputs": [[130, 0, 0], [368, 0, 0]]
    }, 
    {
      "op": "SliceChannel", 
      "name": "deeparpredictionnetwork0_lstm0_t12_slice", 
      "attrs": {"num_outputs": "4"}, 
      "inputs": [[369, 0, 0]]
    }, 
    {
      "op": "sigmoid", 
      "name": "deeparpredictionnetwork0_lstm0_t12_o", 
      "inputs": [[370, 3, 0]]
    }, 
    {
      "op": "sigmoid", 
      "name": "deeparpredictionnetwork0_lstm0_t12_f", 
      "inputs": [[370, 1, 0]]
    }, 
    {
      "op": "ones_like", 
      "name": "deeparpredictionnetwork0_deeparpredictionnetwork0_lstm0_zoneoutones_like1", 
      "inputs": [[362, 0, 0]]
    }, 
    {
      "op": "Dropout", 
      "name": "deeparpredictionnetwork0_deeparpredictionnetwork0_lstm0_zoneoutdropout1", 
      "attrs": {"p": "0.1"}, 
      "inputs": [[373, 0, 0]]
    }, 
    {
      "op": "where", 
      "name": "deeparpredictionnetwork0_deeparpredictionnetwork0_lstm0_zoneoutwhere1", 
      "inputs": [[374, 0, 0], [362, 0, 0], [357, 0, 0]]
    }, 
    {
      "op": "elemwise_mul", 
      "name": "deeparpredictionnetwork0_lstm0_t12_mul0", 
      "inputs": [[372, 0, 0], [375, 0, 0]]
    }, 
    {
      "op": "sigmoid", 
      "name": "deeparpredictionnetwork0_lstm0_t12_i", 
      "inputs": [[370, 0, 0]]
    }, 
    {
      "op": "tanh", 
      "name": "deeparpredictionnetwork0_lstm0_t12_c", 
      "inputs": [[370, 2, 0]]
    }, 
    {
      "op": "elemwise_mul", 
      "name": "deeparpredictionnetwork0_lstm0_t12_mul1", 
      "inputs": [[377, 0, 0], [378, 0, 0]]
    }, 
    {
      "op": "elemwise_add", 
      "name": "deeparpredictionnetwork0_lstm0_t12_state", 
      "inputs": [[376, 0, 0], [379, 0, 0]]
    }, 
    {
      "op": "Activation", 
      "name": "deeparpredictionnetwork0_lstm0_t12_activation0", 
      "attrs": {"act_type": "tanh"}, 
      "inputs": [[380, 0, 0]]
    }, 
    {
      "op": "elemwise_mul", 
      "name": "deeparpredictionnetwork0_lstm0_t12_out", 
      "inputs": [[371, 0, 0], [381, 0, 0]]
    }, 
    {
      "op": "ones_like", 
      "name": "deeparpredictionnetwork0_deeparpredictionnetwork0_lstm0_zoneoutones_like0", 
      "inputs": [[382, 0, 0]]
    }, 
    {
      "op": "Dropout", 
      "name": "deeparpredictionnetwork0_deeparpredictionnetwork0_lstm0_zoneoutdropout0", 
      "attrs": {"p": "0.1"}, 
      "inputs": [[383, 0, 0]]
    }, 
    {
      "op": "where", 
      "name": "deeparpredictionnetwork0_deeparpredictionnetwork0_lstm0_zoneoutwhere0", 
      "inputs": [[384, 0, 0], [382, 0, 0], [367, 0, 0]]
    }, 
    {
      "op": "FullyConnected", 
      "name": "deeparpredictionnetwork0_lstm0_t13_h2h", 
      "attrs": {"num_hidden": "160"}, 
      "inputs": [[385, 0, 0], [149, 0, 0], [150, 0, 0]]
    }, 
    {
      "op": "elemwise_add", 
      "name": "deeparpredictionnetwork0_lstm0_t13_plus0", 
      "inputs": [[129, 0, 0], [386, 0, 0]]
    }, 
    {
      "op": "SliceChannel", 
      "name": "deeparpredictionnetwork0_lstm0_t13_slice", 
      "attrs": {"num_outputs": "4"}, 
      "inputs": [[387, 0, 0]]
    }, 
    {
      "op": "sigmoid", 
      "name": "deeparpredictionnetwork0_lstm0_t13_o", 
      "inputs": [[388, 3, 0]]
    }, 
    {
      "op": "sigmoid", 
      "name": "deeparpredictionnetwork0_lstm0_t13_f", 
      "inputs": [[388, 1, 0]]
    }, 
    {
      "op": "ones_like", 
      "name": "deeparpredictionnetwork0_deeparpredictionnetwork0_lstm0_zoneoutones_like1", 
      "inputs": [[380, 0, 0]]
    }, 
    {
      "op": "Dropout", 
      "name": "deeparpredictionnetwork0_deeparpredictionnetwork0_lstm0_zoneoutdropout1", 
      "attrs": {"p": "0.1"}, 
      "inputs": [[391, 0, 0]]
    }, 
    {
      "op": "where", 
      "name": "deeparpredictionnetwork0_deeparpredictionnetwork0_lstm0_zoneoutwhere1", 
      "inputs": [[392, 0, 0], [380, 0, 0], [375, 0, 0]]
    }, 
    {
      "op": "elemwise_mul", 
      "name": "deeparpredictionnetwork0_lstm0_t13_mul0", 
      "inputs": [[390, 0, 0], [393, 0, 0]]
    }, 
    {
      "op": "sigmoid", 
      "name": "deeparpredictionnetwork0_lstm0_t13_i", 
      "inputs": [[388, 0, 0]]
    }, 
    {
      "op": "tanh", 
      "name": "deeparpredictionnetwork0_lstm0_t13_c", 
      "inputs": [[388, 2, 0]]
    }, 
    {
      "op": "elemwise_mul", 
      "name": "deeparpredictionnetwork0_lstm0_t13_mul1", 
      "inputs": [[395, 0, 0], [396, 0, 0]]
    }, 
    {
      "op": "elemwise_add", 
      "name": "deeparpredictionnetwork0_lstm0_t13_state", 
      "inputs": [[394, 0, 0], [397, 0, 0]]
    }, 
    {
      "op": "Activation", 
      "name": "deeparpredictionnetwork0_lstm0_t13_activation0", 
      "attrs": {"act_type": "tanh"}, 
      "inputs": [[398, 0, 0]]
    }, 
    {
      "op": "elemwise_mul", 
      "name": "deeparpredictionnetwork0_lstm0_t13_out", 
      "inputs": [[389, 0, 0], [399, 0, 0]]
    }, 
    {
      "op": "ones_like", 
      "name": "deeparpredictionnetwork0_deeparpredictionnetwork0_lstm0_zoneoutones_like0", 
      "inputs": [[400, 0, 0]]
    }, 
    {
      "op": "Dropout", 
      "name": "deeparpredictionnetwork0_deeparpredictionnetwork0_lstm0_zoneoutdropout0", 
      "attrs": {"p": "0.1"}, 
      "inputs": [[401, 0, 0]]
    }, 
    {
      "op": "where", 
      "name": "deeparpredictionnetwork0_deeparpredictionnetwork0_lstm0_zoneoutwhere0", 
      "inputs": [[402, 0, 0], [400, 0, 0], [385, 0, 0]]
    }, 
    {
      "op": "FullyConnected", 
      "name": "deeparpredictionnetwork0_lstm0_t14_h2h", 
      "attrs": {"num_hidden": "160"}, 
      "inputs": [[403, 0, 0], [149, 0, 0], [150, 0, 0]]
    }, 
    {
      "op": "elemwise_add", 
      "name": "deeparpredictionnetwork0_lstm0_t14_plus0", 
      "inputs": [[128, 0, 0], [404, 0, 0]]
    }, 
    {
      "op": "SliceChannel", 
      "name": "deeparpredictionnetwork0_lstm0_t14_slice", 
      "attrs": {"num_outputs": "4"}, 
      "inputs": [[405, 0, 0]]
    }, 
    {
      "op": "sigmoid", 
      "name": "deeparpredictionnetwork0_lstm0_t14_o", 
      "inputs": [[406, 3, 0]]
    }, 
    {
      "op": "sigmoid", 
      "name": "deeparpredictionnetwork0_lstm0_t14_f", 
      "inputs": [[406, 1, 0]]
    }, 
    {
      "op": "ones_like", 
      "name": "deeparpredictionnetwork0_deeparpredictionnetwork0_lstm0_zoneoutones_like1", 
      "inputs": [[398, 0, 0]]
    }, 
    {
      "op": "Dropout", 
      "name": "deeparpredictionnetwork0_deeparpredictionnetwork0_lstm0_zoneoutdropout1", 
      "attrs": {"p": "0.1"}, 
      "inputs": [[409, 0, 0]]
    }, 
    {
      "op": "where", 
      "name": "deeparpredictionnetwork0_deeparpredictionnetwork0_lstm0_zoneoutwhere1", 
      "inputs": [[410, 0, 0], [398, 0, 0], [393, 0, 0]]
    }, 
    {
      "op": "elemwise_mul", 
      "name": "deeparpredictionnetwork0_lstm0_t14_mul0", 
      "inputs": [[408, 0, 0], [411, 0, 0]]
    }, 
    {
      "op": "sigmoid", 
      "name": "deeparpredictionnetwork0_lstm0_t14_i", 
      "inputs": [[406, 0, 0]]
    }, 
    {
      "op": "tanh", 
      "name": "deeparpredictionnetwork0_lstm0_t14_c", 
      "inputs": [[406, 2, 0]]
    }, 
    {
      "op": "elemwise_mul", 
      "name": "deeparpredictionnetwork0_lstm0_t14_mul1", 
      "inputs": [[413, 0, 0], [414, 0, 0]]
    }, 
    {
      "op": "elemwise_add", 
      "name": "deeparpredictionnetwork0_lstm0_t14_state", 
      "inputs": [[412, 0, 0], [415, 0, 0]]
    }, 
    {
      "op": "Activation", 
      "name": "deeparpredictionnetwork0_lstm0_t14_activation0", 
      "attrs": {"act_type": "tanh"}, 
      "inputs": [[416, 0, 0]]
    }, 
    {
      "op": "elemwise_mul", 
      "name": "deeparpredictionnetwork0_lstm0_t14_out", 
      "inputs": [[407, 0, 0], [417, 0, 0]]
    }, 
    {
      "op": "ones_like", 
      "name": "deeparpredictionnetwork0_deeparpredictionnetwork0_lstm0_zoneoutones_like0", 
      "inputs": [[418, 0, 0]]
    }, 
    {
      "op": "Dropout", 
      "name": "deeparpredictionnetwork0_deeparpredictionnetwork0_lstm0_zoneoutdropout0", 
      "attrs": {"p": "0.1"}, 
      "inputs": [[419, 0, 0]]
    }, 
    {
      "op": "where", 
      "name": "deeparpredictionnetwork0_deeparpredictionnetwork0_lstm0_zoneoutwhere0", 
      "inputs": [[420, 0, 0], [418, 0, 0], [403, 0, 0]]
    }, 
    {
      "op": "FullyConnected", 
      "name": "deeparpredictionnetwork0_lstm0_t15_h2h", 
      "attrs": {"num_hidden": "160"}, 
      "inputs": [[421, 0, 0], [149, 0, 0], [150, 0, 0]]
    }, 
    {
      "op": "elemwise_add", 
      "name": "deeparpredictionnetwork0_lstm0_t15_plus0", 
      "inputs": [[127, 0, 0], [422, 0, 0]]
    }, 
    {
      "op": "SliceChannel", 
      "name": "deeparpredictionnetwork0_lstm0_t15_slice", 
      "attrs": {"num_outputs": "4"}, 
      "inputs": [[423, 0, 0]]
    }, 
    {
      "op": "sigmoid", 
      "name": "deeparpredictionnetwork0_lstm0_t15_o", 
      "inputs": [[424, 3, 0]]
    }, 
    {
      "op": "sigmoid", 
      "name": "deeparpredictionnetwork0_lstm0_t15_f", 
      "inputs": [[424, 1, 0]]
    }, 
    {
      "op": "ones_like", 
      "name": "deeparpredictionnetwork0_deeparpredictionnetwork0_lstm0_zoneoutones_like1", 
      "inputs": [[416, 0, 0]]
    }, 
    {
      "op": "Dropout", 
      "name": "deeparpredictionnetwork0_deeparpredictionnetwork0_lstm0_zoneoutdropout1", 
      "attrs": {"p": "0.1"}, 
      "inputs": [[427, 0, 0]]
    }, 
    {
      "op": "where", 
      "name": "deeparpredictionnetwork0_deeparpredictionnetwork0_lstm0_zoneoutwhere1", 
      "inputs": [[428, 0, 0], [416, 0, 0], [411, 0, 0]]
    }, 
    {
      "op": "elemwise_mul", 
      "name": "deeparpredictionnetwork0_lstm0_t15_mul0", 
      "inputs": [[426, 0, 0], [429, 0, 0]]
    }, 
    {
      "op": "sigmoid", 
      "name": "deeparpredictionnetwork0_lstm0_t15_i", 
      "inputs": [[424, 0, 0]]
    }, 
    {
      "op": "tanh", 
      "name": "deeparpredictionnetwork0_lstm0_t15_c", 
      "inputs": [[424, 2, 0]]
    }, 
    {
      "op": "elemwise_mul", 
      "name": "deeparpredictionnetwork0_lstm0_t15_mul1", 
      "inputs": [[431, 0, 0], [432, 0, 0]]
    }, 
    {
      "op": "elemwise_add", 
      "name": "deeparpredictionnetwork0_lstm0_t15_state", 
      "inputs": [[430, 0, 0], [433, 0, 0]]
    }, 
    {
      "op": "Activation", 
      "name": "deeparpredictionnetwork0_lstm0_t15_activation0", 
      "attrs": {"act_type": "tanh"}, 
      "inputs": [[434, 0, 0]]
    }, 
    {
      "op": "elemwise_mul", 
      "name": "deeparpredictionnetwork0_lstm0_t15_out", 
      "inputs": [[425, 0, 0], [435, 0, 0]]
    }, 
    {
      "op": "ones_like", 
      "name": "deeparpredictionnetwork0_deeparpredictionnetwork0_lstm0_zoneoutones_like0", 
      "inputs": [[436, 0, 0]]
    }, 
    {
      "op": "Dropout", 
      "name": "deeparpredictionnetwork0_deeparpredictionnetwork0_lstm0_zoneoutdropout0", 
      "attrs": {"p": "0.1"}, 
      "inputs": [[437, 0, 0]]
    }, 
    {
      "op": "where", 
      "name": "deeparpredictionnetwork0_deeparpredictionnetwork0_lstm0_zoneoutwhere0", 
      "inputs": [[438, 0, 0], [436, 0, 0], [421, 0, 0]]
    }, 
    {
      "op": "FullyConnected", 
      "name": "deeparpredictionnetwork0_lstm0_t16_h2h", 
      "attrs": {"num_hidden": "160"}, 
      "inputs": [[439, 0, 0], [149, 0, 0], [150, 0, 0]]
    }, 
    {
      "op": "elemwise_add", 
      "name": "deeparpredictionnetwork0_lstm0_t16_plus0", 
      "inputs": [[126, 0, 0], [440, 0, 0]]
    }, 
    {
      "op": "SliceChannel", 
      "name": "deeparpredictionnetwork0_lstm0_t16_slice", 
      "attrs": {"num_outputs": "4"}, 
      "inputs": [[441, 0, 0]]
    }, 
    {
      "op": "sigmoid", 
      "name": "deeparpredictionnetwork0_lstm0_t16_o", 
      "inputs": [[442, 3, 0]]
    }, 
    {
      "op": "sigmoid", 
      "name": "deeparpredictionnetwork0_lstm0_t16_f", 
      "inputs": [[442, 1, 0]]
    }, 
    {
      "op": "ones_like", 
      "name": "deeparpredictionnetwork0_deeparpredictionnetwork0_lstm0_zoneoutones_like1", 
      "inputs": [[434, 0, 0]]
    }, 
    {
      "op": "Dropout", 
      "name": "deeparpredictionnetwork0_deeparpredictionnetwork0_lstm0_zoneoutdropout1", 
      "attrs": {"p": "0.1"}, 
      "inputs": [[445, 0, 0]]
    }, 
    {
      "op": "where", 
      "name": "deeparpredictionnetwork0_deeparpredictionnetwork0_lstm0_zoneoutwhere1", 
      "inputs": [[446, 0, 0], [434, 0, 0], [429, 0, 0]]
    }, 
    {
      "op": "elemwise_mul", 
      "name": "deeparpredictionnetwork0_lstm0_t16_mul0", 
      "inputs": [[444, 0, 0], [447, 0, 0]]
    }, 
    {
      "op": "sigmoid", 
      "name": "deeparpredictionnetwork0_lstm0_t16_i", 
      "inputs": [[442, 0, 0]]
    }, 
    {
      "op": "tanh", 
      "name": "deeparpredictionnetwork0_lstm0_t16_c", 
      "inputs": [[442, 2, 0]]
    }, 
    {
      "op": "elemwise_mul", 
      "name": "deeparpredictionnetwork0_lstm0_t16_mul1", 
      "inputs": [[449, 0, 0], [450, 0, 0]]
    }, 
    {
      "op": "elemwise_add", 
      "name": "deeparpredictionnetwork0_lstm0_t16_state", 
      "inputs": [[448, 0, 0], [451, 0, 0]]
    }, 
    {
      "op": "Activation", 
      "name": "deeparpredictionnetwork0_lstm0_t16_activation0", 
      "attrs": {"act_type": "tanh"}, 
      "inputs": [[452, 0, 0]]
    }, 
    {
      "op": "elemwise_mul", 
      "name": "deeparpredictionnetwork0_lstm0_t16_out", 
      "inputs": [[443, 0, 0], [453, 0, 0]]
    }, 
    {
      "op": "ones_like", 
      "name": "deeparpredictionnetwork0_deeparpredictionnetwork0_lstm0_zoneoutones_like0", 
      "inputs": [[454, 0, 0]]
    }, 
    {
      "op": "Dropout", 
      "name": "deeparpredictionnetwork0_deeparpredictionnetwork0_lstm0_zoneoutdropout0", 
      "attrs": {"p": "0.1"}, 
      "inputs": [[455, 0, 0]]
    }, 
    {
      "op": "where", 
      "name": "deeparpredictionnetwork0_deeparpredictionnetwork0_lstm0_zoneoutwhere0", 
      "inputs": [[456, 0, 0], [454, 0, 0], [439, 0, 0]]
    }, 
    {
      "op": "FullyConnected", 
      "name": "deeparpredictionnetwork0_lstm0_t17_h2h", 
      "attrs": {"num_hidden": "160"}, 
      "inputs": [[457, 0, 0], [149, 0, 0], [150, 0, 0]]
    }, 
    {
      "op": "elemwise_add", 
      "name": "deeparpredictionnetwork0_lstm0_t17_plus0", 
      "inputs": [[125, 0, 0], [458, 0, 0]]
    }, 
    {
      "op": "SliceChannel", 
      "name": "deeparpredictionnetwork0_lstm0_t17_slice", 
      "attrs": {"num_outputs": "4"}, 
      "inputs": [[459, 0, 0]]
    }, 
    {
      "op": "sigmoid", 
      "name": "deeparpredictionnetwork0_lstm0_t17_o", 
      "inputs": [[460, 3, 0]]
    }, 
    {
      "op": "sigmoid", 
      "name": "deeparpredictionnetwork0_lstm0_t17_f", 
      "inputs": [[460, 1, 0]]
    }, 
    {
      "op": "ones_like", 
      "name": "deeparpredictionnetwork0_deeparpredictionnetwork0_lstm0_zoneoutones_like1", 
      "inputs": [[452, 0, 0]]
    }, 
    {
      "op": "Dropout", 
      "name": "deeparpredictionnetwork0_deeparpredictionnetwork0_lstm0_zoneoutdropout1", 
      "attrs": {"p": "0.1"}, 
      "inputs": [[463, 0, 0]]
    }, 
    {
      "op": "where", 
      "name": "deeparpredictionnetwork0_deeparpredictionnetwork0_lstm0_zoneoutwhere1", 
      "inputs": [[464, 0, 0], [452, 0, 0], [447, 0, 0]]
    }, 
    {
      "op": "elemwise_mul", 
      "name": "deeparpredictionnetwork0_lstm0_t17_mul0", 
      "inputs": [[462, 0, 0], [465, 0, 0]]
    }, 
    {
      "op": "sigmoid", 
      "name": "deeparpredictionnetwork0_lstm0_t17_i", 
      "inputs": [[460, 0, 0]]
    }, 
    {
      "op": "tanh", 
      "name": "deeparpredictionnetwork0_lstm0_t17_c", 
      "inputs": [[460, 2, 0]]
    }, 
    {
      "op": "elemwise_mul", 
      "name": "deeparpredictionnetwork0_lstm0_t17_mul1", 
      "inputs": [[467, 0, 0], [468, 0, 0]]
    }, 
    {
      "op": "elemwise_add", 
      "name": "deeparpredictionnetwork0_lstm0_t17_state", 
      "inputs": [[466, 0, 0], [469, 0, 0]]
    }, 
    {
      "op": "Activation", 
      "name": "deeparpredictionnetwork0_lstm0_t17_activation0", 
      "attrs": {"act_type": "tanh"}, 
      "inputs": [[470, 0, 0]]
    }, 
    {
      "op": "elemwise_mul", 
      "name": "deeparpredictionnetwork0_lstm0_t17_out", 
      "inputs": [[461, 0, 0], [471, 0, 0]]
    }, 
    {
      "op": "ones_like", 
      "name": "deeparpredictionnetwork0_deeparpredictionnetwork0_lstm0_zoneoutones_like0", 
      "inputs": [[472, 0, 0]]
    }, 
    {
      "op": "Dropout", 
      "name": "deeparpredictionnetwork0_deeparpredictionnetwork0_lstm0_zoneoutdropout0", 
      "attrs": {"p": "0.1"}, 
      "inputs": [[473, 0, 0]]
    }, 
    {
      "op": "where", 
      "name": "deeparpredictionnetwork0_deeparpredictionnetwork0_lstm0_zoneoutwhere0", 
      "inputs": [[474, 0, 0], [472, 0, 0], [457, 0, 0]]
    }, 
    {
      "op": "FullyConnected", 
      "name": "deeparpredictionnetwork0_lstm0_t18_h2h", 
      "attrs": {"num_hidden": "160"}, 
      "inputs": [[475, 0, 0], [149, 0, 0], [150, 0, 0]]
    }, 
    {
      "op": "elemwise_add", 
      "name": "deeparpredictionnetwork0_lstm0_t18_plus0", 
      "inputs": [[124, 0, 0], [476, 0, 0]]
    }, 
    {
      "op": "SliceChannel", 
      "name": "deeparpredictionnetwork0_lstm0_t18_slice", 
      "attrs": {"num_outputs": "4"}, 
      "inputs": [[477, 0, 0]]
    }, 
    {
      "op": "sigmoid", 
      "name": "deeparpredictionnetwork0_lstm0_t18_o", 
      "inputs": [[478, 3, 0]]
    }, 
    {
      "op": "sigmoid", 
      "name": "deeparpredictionnetwork0_lstm0_t18_f", 
      "inputs": [[478, 1, 0]]
    }, 
    {
      "op": "ones_like", 
      "name": "deeparpredictionnetwork0_deeparpredictionnetwork0_lstm0_zoneoutones_like1", 
      "inputs": [[470, 0, 0]]
    }, 
    {
      "op": "Dropout", 
      "name": "deeparpredictionnetwork0_deeparpredictionnetwork0_lstm0_zoneoutdropout1", 
      "attrs": {"p": "0.1"}, 
      "inputs": [[481, 0, 0]]
    }, 
    {
      "op": "where", 
      "name": "deeparpredictionnetwork0_deeparpredictionnetwork0_lstm0_zoneoutwhere1", 
      "inputs": [[482, 0, 0], [470, 0, 0], [465, 0, 0]]
    }, 
    {
      "op": "elemwise_mul", 
      "name": "deeparpredictionnetwork0_lstm0_t18_mul0", 
      "inputs": [[480, 0, 0], [483, 0, 0]]
    }, 
    {
      "op": "sigmoid", 
      "name": "deeparpredictionnetwork0_lstm0_t18_i", 
      "inputs": [[478, 0, 0]]
    }, 
    {
      "op": "tanh", 
      "name": "deeparpredictionnetwork0_lstm0_t18_c", 
      "inputs": [[478, 2, 0]]
    }, 
    {
      "op": "elemwise_mul", 
      "name": "deeparpredictionnetwork0_lstm0_t18_mul1", 
      "inputs": [[485, 0, 0], [486, 0, 0]]
    }, 
    {
      "op": "elemwise_add", 
      "name": "deeparpredictionnetwork0_lstm0_t18_state", 
      "inputs": [[484, 0, 0], [487, 0, 0]]
    }, 
    {
      "op": "Activation", 
      "name": "deeparpredictionnetwork0_lstm0_t18_activation0", 
      "attrs": {"act_type": "tanh"}, 
      "inputs": [[488, 0, 0]]
    }, 
    {
      "op": "elemwise_mul", 
      "name": "deeparpredictionnetwork0_lstm0_t18_out", 
      "inputs": [[479, 0, 0], [489, 0, 0]]
    }, 
    {
      "op": "ones_like", 
      "name": "deeparpredictionnetwork0_deeparpredictionnetwork0_lstm0_zoneoutones_like0", 
      "inputs": [[490, 0, 0]]
    }, 
    {
      "op": "Dropout", 
      "name": "deeparpredictionnetwork0_deeparpredictionnetwork0_lstm0_zoneoutdropout0", 
      "attrs": {"p": "0.1"}, 
      "inputs": [[491, 0, 0]]
    }, 
    {
      "op": "where", 
      "name": "deeparpredictionnetwork0_deeparpredictionnetwork0_lstm0_zoneoutwhere0", 
      "inputs": [[492, 0, 0], [490, 0, 0], [475, 0, 0]]
    }, 
    {
      "op": "FullyConnected", 
      "name": "deeparpredictionnetwork0_lstm0_t19_h2h", 
      "attrs": {"num_hidden": "160"}, 
      "inputs": [[493, 0, 0], [149, 0, 0], [150, 0, 0]]
    }, 
    {
      "op": "elemwise_add", 
      "name": "deeparpredictionnetwork0_lstm0_t19_plus0", 
      "inputs": [[123, 0, 0], [494, 0, 0]]
    }, 
    {
      "op": "SliceChannel", 
      "name": "deeparpredictionnetwork0_lstm0_t19_slice", 
      "attrs": {"num_outputs": "4"}, 
      "inputs": [[495, 0, 0]]
    }, 
    {
      "op": "sigmoid", 
      "name": "deeparpredictionnetwork0_lstm0_t19_o", 
      "inputs": [[496, 3, 0]]
    }, 
    {
      "op": "sigmoid", 
      "name": "deeparpredictionnetwork0_lstm0_t19_f", 
      "inputs": [[496, 1, 0]]
    }, 
    {
      "op": "ones_like", 
      "name": "deeparpredictionnetwork0_deeparpredictionnetwork0_lstm0_zoneoutones_like1", 
      "inputs": [[488, 0, 0]]
    }, 
    {
      "op": "Dropout", 
      "name": "deeparpredictionnetwork0_deeparpredictionnetwork0_lstm0_zoneoutdropout1", 
      "attrs": {"p": "0.1"}, 
      "inputs": [[499, 0, 0]]
    }, 
    {
      "op": "where", 
      "name": "deeparpredictionnetwork0_deeparpredictionnetwork0_lstm0_zoneoutwhere1", 
      "inputs": [[500, 0, 0], [488, 0, 0], [483, 0, 0]]
    }, 
    {
      "op": "elemwise_mul", 
      "name": "deeparpredictionnetwork0_lstm0_t19_mul0", 
      "inputs": [[498, 0, 0], [501, 0, 0]]
    }, 
    {
      "op": "sigmoid", 
      "name": "deeparpredictionnetwork0_lstm0_t19_i", 
      "inputs": [[496, 0, 0]]
    }, 
    {
      "op": "tanh", 
      "name": "deeparpredictionnetwork0_lstm0_t19_c", 
      "inputs": [[496, 2, 0]]
    }, 
    {
      "op": "elemwise_mul", 
      "name": "deeparpredictionnetwork0_lstm0_t19_mul1", 
      "inputs": [[503, 0, 0], [504, 0, 0]]
    }, 
    {
      "op": "elemwise_add", 
      "name": "deeparpredictionnetwork0_lstm0_t19_state", 
      "inputs": [[502, 0, 0], [505, 0, 0]]
    }, 
    {
      "op": "Activation", 
      "name": "deeparpredictionnetwork0_lstm0_t19_activation0", 
      "attrs": {"act_type": "tanh"}, 
      "inputs": [[506, 0, 0]]
    }, 
    {
      "op": "elemwise_mul", 
      "name": "deeparpredictionnetwork0_lstm0_t19_out", 
      "inputs": [[497, 0, 0], [507, 0, 0]]
    }, 
    {
      "op": "ones_like", 
      "name": "deeparpredictionnetwork0_deeparpredictionnetwork0_lstm0_zoneoutones_like0", 
      "inputs": [[508, 0, 0]]
    }, 
    {
      "op": "Dropout", 
      "name": "deeparpredictionnetwork0_deeparpredictionnetwork0_lstm0_zoneoutdropout0", 
      "attrs": {"p": "0.1"}, 
      "inputs": [[509, 0, 0]]
    }, 
    {
      "op": "where", 
      "name": "deeparpredictionnetwork0_deeparpredictionnetwork0_lstm0_zoneoutwhere0", 
      "inputs": [[510, 0, 0], [508, 0, 0], [493, 0, 0]]
    }, 
    {
      "op": "FullyConnected", 
      "name": "deeparpredictionnetwork0_lstm0_t20_h2h", 
      "attrs": {"num_hidden": "160"}, 
      "inputs": [[511, 0, 0], [149, 0, 0], [150, 0, 0]]
    }, 
    {
      "op": "elemwise_add", 
      "name": "deeparpredictionnetwork0_lstm0_t20_plus0", 
      "inputs": [[122, 0, 0], [512, 0, 0]]
    }, 
    {
      "op": "SliceChannel", 
      "name": "deeparpredictionnetwork0_lstm0_t20_slice", 
      "attrs": {"num_outputs": "4"}, 
      "inputs": [[513, 0, 0]]
    }, 
    {
      "op": "sigmoid", 
      "name": "deeparpredictionnetwork0_lstm0_t20_o", 
      "inputs": [[514, 3, 0]]
    }, 
    {
      "op": "sigmoid", 
      "name": "deeparpredictionnetwork0_lstm0_t20_f", 
      "inputs": [[514, 1, 0]]
    }, 
    {
      "op": "ones_like", 
      "name": "deeparpredictionnetwork0_deeparpredictionnetwork0_lstm0_zoneoutones_like1", 
      "inputs": [[506, 0, 0]]
    }, 
    {
      "op": "Dropout", 
      "name": "deeparpredictionnetwork0_deeparpredictionnetwork0_lstm0_zoneoutdropout1", 
      "attrs": {"p": "0.1"}, 
      "inputs": [[517, 0, 0]]
    }, 
    {
      "op": "where", 
      "name": "deeparpredictionnetwork0_deeparpredictionnetwork0_lstm0_zoneoutwhere1", 
      "inputs": [[518, 0, 0], [506, 0, 0], [501, 0, 0]]
    }, 
    {
      "op": "elemwise_mul", 
      "name": "deeparpredictionnetwork0_lstm0_t20_mul0", 
      "inputs": [[516, 0, 0], [519, 0, 0]]
    }, 
    {
      "op": "sigmoid", 
      "name": "deeparpredictionnetwork0_lstm0_t20_i", 
      "inputs": [[514, 0, 0]]
    }, 
    {
      "op": "tanh", 
      "name": "deeparpredictionnetwork0_lstm0_t20_c", 
      "inputs": [[514, 2, 0]]
    }, 
    {
      "op": "elemwise_mul", 
      "name": "deeparpredictionnetwork0_lstm0_t20_mul1", 
      "inputs": [[521, 0, 0], [522, 0, 0]]
    }, 
    {
      "op": "elemwise_add", 
      "name": "deeparpredictionnetwork0_lstm0_t20_state", 
      "inputs": [[520, 0, 0], [523, 0, 0]]
    }, 
    {
      "op": "Activation", 
      "name": "deeparpredictionnetwork0_lstm0_t20_activation0", 
      "attrs": {"act_type": "tanh"}, 
      "inputs": [[524, 0, 0]]
    }, 
    {
      "op": "elemwise_mul", 
      "name": "deeparpredictionnetwork0_lstm0_t20_out", 
      "inputs": [[515, 0, 0], [525, 0, 0]]
    }, 
    {
      "op": "ones_like", 
      "name": "deeparpredictionnetwork0_deeparpredictionnetwork0_lstm0_zoneoutones_like0", 
      "inputs": [[526, 0, 0]]
    }, 
    {
      "op": "Dropout", 
      "name": "deeparpredictionnetwork0_deeparpredictionnetwork0_lstm0_zoneoutdropout0", 
      "attrs": {"p": "0.1"}, 
      "inputs": [[527, 0, 0]]
    }, 
    {
      "op": "where", 
      "name": "deeparpredictionnetwork0_deeparpredictionnetwork0_lstm0_zoneoutwhere0", 
      "inputs": [[528, 0, 0], [526, 0, 0], [511, 0, 0]]
    }, 
    {
      "op": "FullyConnected", 
      "name": "deeparpredictionnetwork0_lstm0_t21_h2h", 
      "attrs": {"num_hidden": "160"}, 
      "inputs": [[529, 0, 0], [149, 0, 0], [150, 0, 0]]
    }, 
    {
      "op": "elemwise_add", 
      "name": "deeparpredictionnetwork0_lstm0_t21_plus0", 
      "inputs": [[121, 0, 0], [530, 0, 0]]
    }, 
    {
      "op": "SliceChannel", 
      "name": "deeparpredictionnetwork0_lstm0_t21_slice", 
      "attrs": {"num_outputs": "4"}, 
      "inputs": [[531, 0, 0]]
    }, 
    {
      "op": "sigmoid", 
      "name": "deeparpredictionnetwork0_lstm0_t21_o", 
      "inputs": [[532, 3, 0]]
    }, 
    {
      "op": "sigmoid", 
      "name": "deeparpredictionnetwork0_lstm0_t21_f", 
      "inputs": [[532, 1, 0]]
    }, 
    {
      "op": "ones_like", 
      "name": "deeparpredictionnetwork0_deeparpredictionnetwork0_lstm0_zoneoutones_like1", 
      "inputs": [[524, 0, 0]]
    }, 
    {
      "op": "Dropout", 
      "name": "deeparpredictionnetwork0_deeparpredictionnetwork0_lstm0_zoneoutdropout1", 
      "attrs": {"p": "0.1"}, 
      "inputs": [[535, 0, 0]]
    }, 
    {
      "op": "where", 
      "name": "deeparpredictionnetwork0_deeparpredictionnetwork0_lstm0_zoneoutwhere1", 
      "inputs": [[536, 0, 0], [524, 0, 0], [519, 0, 0]]
    }, 
    {
      "op": "elemwise_mul", 
      "name": "deeparpredictionnetwork0_lstm0_t21_mul0", 
      "inputs": [[534, 0, 0], [537, 0, 0]]
    }, 
    {
      "op": "sigmoid", 
      "name": "deeparpredictionnetwork0_lstm0_t21_i", 
      "inputs": [[532, 0, 0]]
    }, 
    {
      "op": "tanh", 
      "name": "deeparpredictionnetwork0_lstm0_t21_c", 
      "inputs": [[532, 2, 0]]
    }, 
    {
      "op": "elemwise_mul", 
      "name": "deeparpredictionnetwork0_lstm0_t21_mul1", 
      "inputs": [[539, 0, 0], [540, 0, 0]]
    }, 
    {
      "op": "elemwise_add", 
      "name": "deeparpredictionnetwork0_lstm0_t21_state", 
      "inputs": [[538, 0, 0], [541, 0, 0]]
    }, 
    {
      "op": "Activation", 
      "name": "deeparpredictionnetwork0_lstm0_t21_activation0", 
      "attrs": {"act_type": "tanh"}, 
      "inputs": [[542, 0, 0]]
    }, 
    {
      "op": "elemwise_mul", 
      "name": "deeparpredictionnetwork0_lstm0_t21_out", 
      "inputs": [[533, 0, 0], [543, 0, 0]]
    }, 
    {
      "op": "ones_like", 
      "name": "deeparpredictionnetwork0_deeparpredictionnetwork0_lstm0_zoneoutones_like0", 
      "inputs": [[544, 0, 0]]
    }, 
    {
      "op": "Dropout", 
      "name": "deeparpredictionnetwork0_deeparpredictionnetwork0_lstm0_zoneoutdropout0", 
      "attrs": {"p": "0.1"}, 
      "inputs": [[545, 0, 0]]
    }, 
    {
      "op": "where", 
      "name": "deeparpredictionnetwork0_deeparpredictionnetwork0_lstm0_zoneoutwhere0", 
      "inputs": [[546, 0, 0], [544, 0, 0], [529, 0, 0]]
    }, 
    {
      "op": "FullyConnected", 
      "name": "deeparpredictionnetwork0_lstm0_t22_h2h", 
      "attrs": {"num_hidden": "160"}, 
      "inputs": [[547, 0, 0], [149, 0, 0], [150, 0, 0]]
    }, 
    {
      "op": "elemwise_add", 
      "name": "deeparpredictionnetwork0_lstm0_t22_plus0", 
      "inputs": [[120, 0, 0], [548, 0, 0]]
    }, 
    {
      "op": "SliceChannel", 
      "name": "deeparpredictionnetwork0_lstm0_t22_slice", 
      "attrs": {"num_outputs": "4"}, 
      "inputs": [[549, 0, 0]]
    }, 
    {
      "op": "sigmoid", 
      "name": "deeparpredictionnetwork0_lstm0_t22_o", 
      "inputs": [[550, 3, 0]]
    }, 
    {
      "op": "sigmoid", 
      "name": "deeparpredictionnetwork0_lstm0_t22_f", 
      "inputs": [[550, 1, 0]]
    }, 
    {
      "op": "ones_like", 
      "name": "deeparpredictionnetwork0_deeparpredictionnetwork0_lstm0_zoneoutones_like1", 
      "inputs": [[542, 0, 0]]
    }, 
    {
      "op": "Dropout", 
      "name": "deeparpredictionnetwork0_deeparpredictionnetwork0_lstm0_zoneoutdropout1", 
      "attrs": {"p": "0.1"}, 
      "inputs": [[553, 0, 0]]
    }, 
    {
      "op": "where", 
      "name": "deeparpredictionnetwork0_deeparpredictionnetwork0_lstm0_zoneoutwhere1", 
      "inputs": [[554, 0, 0], [542, 0, 0], [537, 0, 0]]
    }, 
    {
      "op": "elemwise_mul", 
      "name": "deeparpredictionnetwork0_lstm0_t22_mul0", 
      "inputs": [[552, 0, 0], [555, 0, 0]]
    }, 
    {
      "op": "sigmoid", 
      "name": "deeparpredictionnetwork0_lstm0_t22_i", 
      "inputs": [[550, 0, 0]]
    }, 
    {
      "op": "tanh", 
      "name": "deeparpredictionnetwork0_lstm0_t22_c", 
      "inputs": [[550, 2, 0]]
    }, 
    {
      "op": "elemwise_mul", 
      "name": "deeparpredictionnetwork0_lstm0_t22_mul1", 
      "inputs": [[557, 0, 0], [558, 0, 0]]
    }, 
    {
      "op": "elemwise_add", 
      "name": "deeparpredictionnetwork0_lstm0_t22_state", 
      "inputs": [[556, 0, 0], [559, 0, 0]]
    }, 
    {
      "op": "Activation", 
      "name": "deeparpredictionnetwork0_lstm0_t22_activation0", 
      "attrs": {"act_type": "tanh"}, 
      "inputs": [[560, 0, 0]]
    }, 
    {
      "op": "elemwise_mul", 
      "name": "deeparpredictionnetwork0_lstm0_t22_out", 
      "inputs": [[551, 0, 0], [561, 0, 0]]
    }, 
    {
      "op": "ones_like", 
      "name": "deeparpredictionnetwork0_deeparpredictionnetwork0_lstm0_zoneoutones_like0", 
      "inputs": [[562, 0, 0]]
    }, 
    {
      "op": "Dropout", 
      "name": "deeparpredictionnetwork0_deeparpredictionnetwork0_lstm0_zoneoutdropout0", 
      "attrs": {"p": "0.1"}, 
      "inputs": [[563, 0, 0]]
    }, 
    {
      "op": "where", 
      "name": "deeparpredictionnetwork0_deeparpredictionnetwork0_lstm0_zoneoutwhere0", 
      "inputs": [[564, 0, 0], [562, 0, 0], [547, 0, 0]]
    }, 
    {
      "op": "FullyConnected", 
      "name": "deeparpredictionnetwork0_lstm0_t23_h2h", 
      "attrs": {"num_hidden": "160"}, 
      "inputs": [[565, 0, 0], [149, 0, 0], [150, 0, 0]]
    }, 
    {
      "op": "elemwise_add", 
      "name": "deeparpredictionnetwork0_lstm0_t23_plus0", 
      "inputs": [[119, 0, 0], [566, 0, 0]]
    }, 
    {
      "op": "SliceChannel", 
      "name": "deeparpredictionnetwork0_lstm0_t23_slice", 
      "attrs": {"num_outputs": "4"}, 
      "inputs": [[567, 0, 0]]
    }, 
    {
      "op": "sigmoid", 
      "name": "deeparpredictionnetwork0_lstm0_t23_o", 
      "inputs": [[568, 3, 0]]
    }, 
    {
      "op": "sigmoid", 
      "name": "deeparpredictionnetwork0_lstm0_t23_f", 
      "inputs": [[568, 1, 0]]
    }, 
    {
      "op": "ones_like", 
      "name": "deeparpredictionnetwork0_deeparpredictionnetwork0_lstm0_zoneoutones_like1", 
      "inputs": [[560, 0, 0]]
    }, 
    {
      "op": "Dropout", 
      "name": "deeparpredictionnetwork0_deeparpredictionnetwork0_lstm0_zoneoutdropout1", 
      "attrs": {"p": "0.1"}, 
      "inputs": [[571, 0, 0]]
    }, 
    {
      "op": "where", 
      "name": "deeparpredictionnetwork0_deeparpredictionnetwork0_lstm0_zoneoutwhere1", 
      "inputs": [[572, 0, 0], [560, 0, 0], [555, 0, 0]]
    }, 
    {
      "op": "elemwise_mul", 
      "name": "deeparpredictionnetwork0_lstm0_t23_mul0", 
      "inputs": [[570, 0, 0], [573, 0, 0]]
    }, 
    {
      "op": "sigmoid", 
      "name": "deeparpredictionnetwork0_lstm0_t23_i", 
      "inputs": [[568, 0, 0]]
    }, 
    {
      "op": "tanh", 
      "name": "deeparpredictionnetwork0_lstm0_t23_c", 
      "inputs": [[568, 2, 0]]
    }, 
    {
      "op": "elemwise_mul", 
      "name": "deeparpredictionnetwork0_lstm0_t23_mul1", 
      "inputs": [[575, 0, 0], [576, 0, 0]]
    }, 
    {
      "op": "elemwise_add", 
      "name": "deeparpredictionnetwork0_lstm0_t23_state", 
      "inputs": [[574, 0, 0], [577, 0, 0]]
    }, 
    {
      "op": "Activation", 
      "name": "deeparpredictionnetwork0_lstm0_t23_activation0", 
      "attrs": {"act_type": "tanh"}, 
      "inputs": [[578, 0, 0]]
    }, 
    {
      "op": "elemwise_mul", 
      "name": "deeparpredictionnetwork0_lstm0_t23_out", 
      "inputs": [[569, 0, 0], [579, 0, 0]]
    }, 
    {
      "op": "ones_like", 
      "name": "deeparpredictionnetwork0_deeparpredictionnetwork0_lstm0_zoneoutones_like0", 
      "inputs": [[580, 0, 0]]
    }, 
    {
      "op": "Dropout", 
      "name": "deeparpredictionnetwork0_deeparpredictionnetwork0_lstm0_zoneoutdropout0", 
      "attrs": {"p": "0.1"}, 
      "inputs": [[581, 0, 0]]
    }, 
    {
      "op": "where", 
      "name": "deeparpredictionnetwork0_deeparpredictionnetwork0_lstm0_zoneoutwhere0", 
      "inputs": [[582, 0, 0], [580, 0, 0], [565, 0, 0]]
    }, 
    {
      "op": "FullyConnected", 
      "name": "deeparpredictionnetwork0_lstm0_t24_h2h", 
      "attrs": {"num_hidden": "160"}, 
      "inputs": [[583, 0, 0], [149, 0, 0], [150, 0, 0]]
    }, 
    {
      "op": "elemwise_add", 
      "name": "deeparpredictionnetwork0_lstm0_t24_plus0", 
      "inputs": [[118, 0, 0], [584, 0, 0]]
    }, 
    {
      "op": "SliceChannel", 
      "name": "deeparpredictionnetwork0_lstm0_t24_slice", 
      "attrs": {"num_outputs": "4"}, 
      "inputs": [[585, 0, 0]]
    }, 
    {
      "op": "sigmoid", 
      "name": "deeparpredictionnetwork0_lstm0_t24_o", 
      "inputs": [[586, 3, 0]]
    }, 
    {
      "op": "sigmoid", 
      "name": "deeparpredictionnetwork0_lstm0_t24_f", 
      "inputs": [[586, 1, 0]]
    }, 
    {
      "op": "ones_like", 
      "name": "deeparpredictionnetwork0_deeparpredictionnetwork0_lstm0_zoneoutones_like1", 
      "inputs": [[578, 0, 0]]
    }, 
    {
      "op": "Dropout", 
      "name": "deeparpredictionnetwork0_deeparpredictionnetwork0_lstm0_zoneoutdropout1", 
      "attrs": {"p": "0.1"}, 
      "inputs": [[589, 0, 0]]
    }, 
    {
      "op": "where", 
      "name": "deeparpredictionnetwork0_deeparpredictionnetwork0_lstm0_zoneoutwhere1", 
      "inputs": [[590, 0, 0], [578, 0, 0], [573, 0, 0]]
    }, 
    {
      "op": "elemwise_mul", 
      "name": "deeparpredictionnetwork0_lstm0_t24_mul0", 
      "inputs": [[588, 0, 0], [591, 0, 0]]
    }, 
    {
      "op": "sigmoid", 
      "name": "deeparpredictionnetwork0_lstm0_t24_i", 
      "inputs": [[586, 0, 0]]
    }, 
    {
      "op": "tanh", 
      "name": "deeparpredictionnetwork0_lstm0_t24_c", 
      "inputs": [[586, 2, 0]]
    }, 
    {
      "op": "elemwise_mul", 
      "name": "deeparpredictionnetwork0_lstm0_t24_mul1", 
      "inputs": [[593, 0, 0], [594, 0, 0]]
    }, 
    {
      "op": "elemwise_add", 
      "name": "deeparpredictionnetwork0_lstm0_t24_state", 
      "inputs": [[592, 0, 0], [595, 0, 0]]
    }, 
    {
      "op": "Activation", 
      "name": "deeparpredictionnetwork0_lstm0_t24_activation0", 
      "attrs": {"act_type": "tanh"}, 
      "inputs": [[596, 0, 0]]
    }, 
    {
      "op": "elemwise_mul", 
      "name": "deeparpredictionnetwork0_lstm0_t24_out", 
      "inputs": [[587, 0, 0], [597, 0, 0]]
    }, 
    {
      "op": "ones_like", 
      "name": "deeparpredictionnetwork0_deeparpredictionnetwork0_lstm0_zoneoutones_like0", 
      "inputs": [[598, 0, 0]]
    }, 
    {
      "op": "Dropout", 
      "name": "deeparpredictionnetwork0_deeparpredictionnetwork0_lstm0_zoneoutdropout0", 
      "attrs": {"p": "0.1"}, 
      "inputs": [[599, 0, 0]]
    }, 
    {
      "op": "where", 
      "name": "deeparpredictionnetwork0_deeparpredictionnetwork0_lstm0_zoneoutwhere0", 
      "inputs": [[600, 0, 0], [598, 0, 0], [583, 0, 0]]
    }, 
    {
      "op": "FullyConnected", 
      "name": "deeparpredictionnetwork0_lstm0_t25_h2h", 
      "attrs": {"num_hidden": "160"}, 
      "inputs": [[601, 0, 0], [149, 0, 0], [150, 0, 0]]
    }, 
    {
      "op": "elemwise_add", 
      "name": "deeparpredictionnetwork0_lstm0_t25_plus0", 
      "inputs": [[117, 0, 0], [602, 0, 0]]
    }, 
    {
      "op": "SliceChannel", 
      "name": "deeparpredictionnetwork0_lstm0_t25_slice", 
      "attrs": {"num_outputs": "4"}, 
      "inputs": [[603, 0, 0]]
    }, 
    {
      "op": "sigmoid", 
      "name": "deeparpredictionnetwork0_lstm0_t25_o", 
      "inputs": [[604, 3, 0]]
    }, 
    {
      "op": "sigmoid", 
      "name": "deeparpredictionnetwork0_lstm0_t25_f", 
      "inputs": [[604, 1, 0]]
    }, 
    {
      "op": "ones_like", 
      "name": "deeparpredictionnetwork0_deeparpredictionnetwork0_lstm0_zoneoutones_like1", 
      "inputs": [[596, 0, 0]]
    }, 
    {
      "op": "Dropout", 
      "name": "deeparpredictionnetwork0_deeparpredictionnetwork0_lstm0_zoneoutdropout1", 
      "attrs": {"p": "0.1"}, 
      "inputs": [[607, 0, 0]]
    }, 
    {
      "op": "where", 
      "name": "deeparpredictionnetwork0_deeparpredictionnetwork0_lstm0_zoneoutwhere1", 
      "inputs": [[608, 0, 0], [596, 0, 0], [591, 0, 0]]
    }, 
    {
      "op": "elemwise_mul", 
      "name": "deeparpredictionnetwork0_lstm0_t25_mul0", 
      "inputs": [[606, 0, 0], [609, 0, 0]]
    }, 
    {
      "op": "sigmoid", 
      "name": "deeparpredictionnetwork0_lstm0_t25_i", 
      "inputs": [[604, 0, 0]]
    }, 
    {
      "op": "tanh", 
      "name": "deeparpredictionnetwork0_lstm0_t25_c", 
      "inputs": [[604, 2, 0]]
    }, 
    {
      "op": "elemwise_mul", 
      "name": "deeparpredictionnetwork0_lstm0_t25_mul1", 
      "inputs": [[611, 0, 0], [612, 0, 0]]
    }, 
    {
      "op": "elemwise_add", 
      "name": "deeparpredictionnetwork0_lstm0_t25_state", 
      "inputs": [[610, 0, 0], [613, 0, 0]]
    }, 
    {
      "op": "Activation", 
      "name": "deeparpredictionnetwork0_lstm0_t25_activation0", 
      "attrs": {"act_type": "tanh"}, 
      "inputs": [[614, 0, 0]]
    }, 
    {
      "op": "elemwise_mul", 
      "name": "deeparpredictionnetwork0_lstm0_t25_out", 
      "inputs": [[605, 0, 0], [615, 0, 0]]
    }, 
    {
      "op": "ones_like", 
      "name": "deeparpredictionnetwork0_deeparpredictionnetwork0_lstm0_zoneoutones_like0", 
      "inputs": [[616, 0, 0]]
    }, 
    {
      "op": "Dropout", 
      "name": "deeparpredictionnetwork0_deeparpredictionnetwork0_lstm0_zoneoutdropout0", 
      "attrs": {"p": "0.1"}, 
      "inputs": [[617, 0, 0]]
    }, 
    {
      "op": "where", 
      "name": "deeparpredictionnetwork0_deeparpredictionnetwork0_lstm0_zoneoutwhere0", 
      "inputs": [[618, 0, 0], [616, 0, 0], [601, 0, 0]]
    }, 
    {
      "op": "FullyConnected", 
      "name": "deeparpredictionnetwork0_lstm0_t26_h2h", 
      "attrs": {"num_hidden": "160"}, 
      "inputs": [[619, 0, 0], [149, 0, 0], [150, 0, 0]]
    }, 
    {
      "op": "elemwise_add", 
      "name": "deeparpredictionnetwork0_lstm0_t26_plus0", 
      "inputs": [[116, 0, 0], [620, 0, 0]]
    }, 
    {
      "op": "SliceChannel", 
      "name": "deeparpredictionnetwork0_lstm0_t26_slice", 
      "attrs": {"num_outputs": "4"}, 
      "inputs": [[621, 0, 0]]
    }, 
    {
      "op": "sigmoid", 
      "name": "deeparpredictionnetwork0_lstm0_t26_o", 
      "inputs": [[622, 3, 0]]
    }, 
    {
      "op": "sigmoid", 
      "name": "deeparpredictionnetwork0_lstm0_t26_f", 
      "inputs": [[622, 1, 0]]
    }, 
    {
      "op": "ones_like", 
      "name": "deeparpredictionnetwork0_deeparpredictionnetwork0_lstm0_zoneoutones_like1", 
      "inputs": [[614, 0, 0]]
    }, 
    {
      "op": "Dropout", 
      "name": "deeparpredictionnetwork0_deeparpredictionnetwork0_lstm0_zoneoutdropout1", 
      "attrs": {"p": "0.1"}, 
      "inputs": [[625, 0, 0]]
    }, 
    {
      "op": "where", 
      "name": "deeparpredictionnetwork0_deeparpredictionnetwork0_lstm0_zoneoutwhere1", 
      "inputs": [[626, 0, 0], [614, 0, 0], [609, 0, 0]]
    }, 
    {
      "op": "elemwise_mul", 
      "name": "deeparpredictionnetwork0_lstm0_t26_mul0", 
      "inputs": [[624, 0, 0], [627, 0, 0]]
    }, 
    {
      "op": "sigmoid", 
      "name": "deeparpredictionnetwork0_lstm0_t26_i", 
      "inputs": [[622, 0, 0]]
    }, 
    {
      "op": "tanh", 
      "name": "deeparpredictionnetwork0_lstm0_t26_c", 
      "inputs": [[622, 2, 0]]
    }, 
    {
      "op": "elemwise_mul", 
      "name": "deeparpredictionnetwork0_lstm0_t26_mul1", 
      "inputs": [[629, 0, 0], [630, 0, 0]]
    }, 
    {
      "op": "elemwise_add", 
      "name": "deeparpredictionnetwork0_lstm0_t26_state", 
      "inputs": [[628, 0, 0], [631, 0, 0]]
    }, 
    {
      "op": "Activation", 
      "name": "deeparpredictionnetwork0_lstm0_t26_activation0", 
      "attrs": {"act_type": "tanh"}, 
      "inputs": [[632, 0, 0]]
    }, 
    {
      "op": "elemwise_mul", 
      "name": "deeparpredictionnetwork0_lstm0_t26_out", 
      "inputs": [[623, 0, 0], [633, 0, 0]]
    }, 
    {
      "op": "ones_like", 
      "name": "deeparpredictionnetwork0_deeparpredictionnetwork0_lstm0_zoneoutones_like0", 
      "inputs": [[634, 0, 0]]
    }, 
    {
      "op": "Dropout", 
      "name": "deeparpredictionnetwork0_deeparpredictionnetwork0_lstm0_zoneoutdropout0", 
      "attrs": {"p": "0.1"}, 
      "inputs": [[635, 0, 0]]
    }, 
    {
      "op": "where", 
      "name": "deeparpredictionnetwork0_deeparpredictionnetwork0_lstm0_zoneoutwhere0", 
      "inputs": [[636, 0, 0], [634, 0, 0], [619, 0, 0]]
    }, 
    {
      "op": "FullyConnected", 
      "name": "deeparpredictionnetwork0_lstm0_t27_h2h", 
      "attrs": {"num_hidden": "160"}, 
      "inputs": [[637, 0, 0], [149, 0, 0], [150, 0, 0]]
    }, 
    {
      "op": "elemwise_add", 
      "name": "deeparpredictionnetwork0_lstm0_t27_plus0", 
      "inputs": [[115, 0, 0], [638, 0, 0]]
    }, 
    {
      "op": "SliceChannel", 
      "name": "deeparpredictionnetwork0_lstm0_t27_slice", 
      "attrs": {"num_outputs": "4"}, 
      "inputs": [[639, 0, 0]]
    }, 
    {
      "op": "sigmoid", 
      "name": "deeparpredictionnetwork0_lstm0_t27_o", 
      "inputs": [[640, 3, 0]]
    }, 
    {
      "op": "sigmoid", 
      "name": "deeparpredictionnetwork0_lstm0_t27_f", 
      "inputs": [[640, 1, 0]]
    }, 
    {
      "op": "ones_like", 
      "name": "deeparpredictionnetwork0_deeparpredictionnetwork0_lstm0_zoneoutones_like1", 
      "inputs": [[632, 0, 0]]
    }, 
    {
      "op": "Dropout", 
      "name": "deeparpredictionnetwork0_deeparpredictionnetwork0_lstm0_zoneoutdropout1", 
      "attrs": {"p": "0.1"}, 
      "inputs": [[643, 0, 0]]
    }, 
    {
      "op": "where", 
      "name": "deeparpredictionnetwork0_deeparpredictionnetwork0_lstm0_zoneoutwhere1", 
      "inputs": [[644, 0, 0], [632, 0, 0], [627, 0, 0]]
    }, 
    {
      "op": "elemwise_mul", 
      "name": "deeparpredictionnetwork0_lstm0_t27_mul0", 
      "inputs": [[642, 0, 0], [645, 0, 0]]
    }, 
    {
      "op": "sigmoid", 
      "name": "deeparpredictionnetwork0_lstm0_t27_i", 
      "inputs": [[640, 0, 0]]
    }, 
    {
      "op": "tanh", 
      "name": "deeparpredictionnetwork0_lstm0_t27_c", 
      "inputs": [[640, 2, 0]]
    }, 
    {
      "op": "elemwise_mul", 
      "name": "deeparpredictionnetwork0_lstm0_t27_mul1", 
      "inputs": [[647, 0, 0], [648, 0, 0]]
    }, 
    {
      "op": "elemwise_add", 
      "name": "deeparpredictionnetwork0_lstm0_t27_state", 
      "inputs": [[646, 0, 0], [649, 0, 0]]
    }, 
    {
      "op": "Activation", 
      "name": "deeparpredictionnetwork0_lstm0_t27_activation0", 
      "attrs": {"act_type": "tanh"}, 
      "inputs": [[650, 0, 0]]
    }, 
    {
      "op": "elemwise_mul", 
      "name": "deeparpredictionnetwork0_lstm0_t27_out", 
      "inputs": [[641, 0, 0], [651, 0, 0]]
    }, 
    {
      "op": "ones_like", 
      "name": "deeparpredictionnetwork0_deeparpredictionnetwork0_lstm0_zoneoutones_like0", 
      "inputs": [[652, 0, 0]]
    }, 
    {
      "op": "Dropout", 
      "name": "deeparpredictionnetwork0_deeparpredictionnetwork0_lstm0_zoneoutdropout0", 
      "attrs": {"p": "0.1"}, 
      "inputs": [[653, 0, 0]]
    }, 
    {
      "op": "where", 
      "name": "deeparpredictionnetwork0_deeparpredictionnetwork0_lstm0_zoneoutwhere0", 
      "inputs": [[654, 0, 0], [652, 0, 0], [637, 0, 0]]
    }, 
    {
      "op": "repeat", 
      "name": "deeparpredictionnetwork0_repeat9", 
      "attrs": {
        "axis": "0", 
        "repeats": "100"
      }, 
      "inputs": [[655, 0, 0]]
    }, 
    {
      "op": "FullyConnected", 
      "name": "deeparpredictionnetwork0_lstm0_t0_h2h", 
      "attrs": {"num_hidden": "160"}, 
      "inputs": [[656, 0, 0], [149, 0, 0], [150, 0, 0]]
    }, 
    {
      "op": "elemwise_add", 
      "name": "deeparpredictionnetwork0_lstm0_t0_plus0", 
      "inputs": [[74, 0, 0], [657, 0, 0]]
    }, 
    {
      "op": "SliceChannel", 
      "name": "deeparpredictionnetwork0_lstm0_t0_slice", 
      "attrs": {"num_outputs": "4"}, 
      "inputs": [[658, 0, 0]]
    }, 
    {
      "op": "sigmoid", 
      "name": "deeparpredictionnetwork0_lstm0_t0_o", 
      "inputs": [[659, 3, 0]]
    }, 
    {
      "op": "sigmoid", 
      "name": "deeparpredictionnetwork0_lstm0_t0_f", 
      "inputs": [[659, 1, 0]]
    }, 
    {
      "op": "ones_like", 
      "name": "deeparpredictionnetwork0_deeparpredictionnetwork0_lstm0_zoneoutones_like1", 
      "inputs": [[650, 0, 0]]
    }, 
    {
      "op": "Dropout", 
      "name": "deeparpredictionnetwork0_deeparpredictionnetwork0_lstm0_zoneoutdropout1", 
      "attrs": {"p": "0.1"}, 
      "inputs": [[662, 0, 0]]
    }, 
    {
      "op": "where", 
      "name": "deeparpredictionnetwork0_deeparpredictionnetwork0_lstm0_zoneoutwhere1", 
      "inputs": [[663, 0, 0], [650, 0, 0], [645, 0, 0]]
    }, 
    {
      "op": "repeat", 
      "name": "deeparpredictionnetwork0_repeat10", 
      "attrs": {
        "axis": "0", 
        "repeats": "100"
      }, 
      "inputs": [[664, 0, 0]]
    }, 
    {
      "op": "elemwise_mul", 
      "name": "deeparpredictionnetwork0_lstm0_t0_mul0", 
      "inputs": [[661, 0, 0], [665, 0, 0]]
    }, 
    {
      "op": "sigmoid", 
      "name": "deeparpredictionnetwork0_lstm0_t0_i", 
      "inputs": [[659, 0, 0]]
    }, 
    {
      "op": "tanh", 
      "name": "deeparpredictionnetwork0_lstm0_t0_c", 
      "inputs": [[659, 2, 0]]
    }, 
    {
      "op": "elemwise_mul", 
      "name": "deeparpredictionnetwork0_lstm0_t0_mul1", 
      "inputs": [[667, 0, 0], [668, 0, 0]]
    }, 
    {
      "op": "elemwise_add", 
      "name": "deeparpredictionnetwork0_lstm0_t0_state", 
      "inputs": [[666, 0, 0], [669, 0, 0]]
    }, 
    {
      "op": "Activation", 
      "name": "deeparpredictionnetwork0_lstm0_t0_activation0", 
      "attrs": {"act_type": "tanh"}, 
      "inputs": [[670, 0, 0]]
    }, 
    {
      "op": "elemwise_mul", 
      "name": "deeparpredictionnetwork0_lstm0_t0_out", 
      "inputs": [[660, 0, 0], [671, 0, 0]]
    }, 
    {
      "op": "null", 
      "name": "deeparpredictionnetwork0_lstm1_i2h_weight", 
      "attrs": {
        "__dtype__": "0", 
        "__lr_mult__": "1.0", 
        "__shape__": "(160, 40)", 
        "__storage_type__": "0", 
        "__wd_mult__": "1.0"
      }, 
      "inputs": []
    }, 
    {
      "op": "null", 
      "name": "deeparpredictionnetwork0_lstm1_i2h_bias", 
      "attrs": {
        "__dtype__": "0", 
        "__init__": "zeros", 
        "__lr_mult__": "1.0", 
        "__shape__": "(160,)", 
        "__storage_type__": "0", 
        "__wd_mult__": "1.0"
      }, 
      "inputs": []
    }, 
    {
      "op": "FullyConnected", 
      "name": "deeparpredictionnetwork0_lstm1_t0_i2h", 
      "attrs": {"num_hidden": "160"}, 
      "inputs": [[672, 0, 0], [673, 0, 0], [674, 0, 0]]
    }, 
    {
      "op": "FullyConnected", 
      "name": "deeparpredictionnetwork0_lstm1_t27_i2h", 
      "attrs": {"num_hidden": "160"}, 
      "inputs": [[652, 0, 0], [673, 0, 0], [674, 0, 0]]
    }, 
    {
      "op": "FullyConnected", 
      "name": "deeparpredictionnetwork0_lstm1_t26_i2h", 
      "attrs": {"num_hidden": "160"}, 
      "inputs": [[634, 0, 0], [673, 0, 0], [674, 0, 0]]
    }, 
    {
      "op": "FullyConnected", 
      "name": "deeparpredictionnetwork0_lstm1_t25_i2h", 
      "attrs": {"num_hidden": "160"}, 
      "inputs": [[616, 0, 0], [673, 0, 0], [674, 0, 0]]
    }, 
    {
      "op": "FullyConnected", 
      "name": "deeparpredictionnetwork0_lstm1_t24_i2h", 
      "attrs": {"num_hidden": "160"}, 
      "inputs": [[598, 0, 0], [673, 0, 0], [674, 0, 0]]
    }, 
    {
      "op": "FullyConnected", 
      "name": "deeparpredictionnetwork0_lstm1_t23_i2h", 
      "attrs": {"num_hidden": "160"}, 
      "inputs": [[580, 0, 0], [673, 0, 0], [674, 0, 0]]
    }, 
    {
      "op": "FullyConnected", 
      "name": "deeparpredictionnetwork0_lstm1_t22_i2h", 
      "attrs": {"num_hidden": "160"}, 
      "inputs": [[562, 0, 0], [673, 0, 0], [674, 0, 0]]
    }, 
    {
      "op": "FullyConnected", 
      "name": "deeparpredictionnetwork0_lstm1_t21_i2h", 
      "attrs": {"num_hidden": "160"}, 
      "inputs": [[544, 0, 0], [673, 0, 0], [674, 0, 0]]
    }, 
    {
      "op": "FullyConnected", 
      "name": "deeparpredictionnetwork0_lstm1_t20_i2h", 
      "attrs": {"num_hidden": "160"}, 
      "inputs": [[526, 0, 0], [673, 0, 0], [674, 0, 0]]
    }, 
    {
      "op": "FullyConnected", 
      "name": "deeparpredictionnetwork0_lstm1_t19_i2h", 
      "attrs": {"num_hidden": "160"}, 
      "inputs": [[508, 0, 0], [673, 0, 0], [674, 0, 0]]
    }, 
    {
      "op": "FullyConnected", 
      "name": "deeparpredictionnetwork0_lstm1_t18_i2h", 
      "attrs": {"num_hidden": "160"}, 
      "inputs": [[490, 0, 0], [673, 0, 0], [674, 0, 0]]
    }, 
    {
      "op": "FullyConnected", 
      "name": "deeparpredictionnetwork0_lstm1_t17_i2h", 
      "attrs": {"num_hidden": "160"}, 
      "inputs": [[472, 0, 0], [673, 0, 0], [674, 0, 0]]
    }, 
    {
      "op": "FullyConnected", 
      "name": "deeparpredictionnetwork0_lstm1_t16_i2h", 
      "attrs": {"num_hidden": "160"}, 
      "inputs": [[454, 0, 0], [673, 0, 0], [674, 0, 0]]
    }, 
    {
      "op": "FullyConnected", 
      "name": "deeparpredictionnetwork0_lstm1_t15_i2h", 
      "attrs": {"num_hidden": "160"}, 
      "inputs": [[436, 0, 0], [673, 0, 0], [674, 0, 0]]
    }, 
    {
      "op": "FullyConnected", 
      "name": "deeparpredictionnetwork0_lstm1_t14_i2h", 
      "attrs": {"num_hidden": "160"}, 
      "inputs": [[418, 0, 0], [673, 0, 0], [674, 0, 0]]
    }, 
    {
      "op": "FullyConnected", 
      "name": "deeparpredictionnetwork0_lstm1_t13_i2h", 
      "attrs": {"num_hidden": "160"}, 
      "inputs": [[400, 0, 0], [673, 0, 0], [674, 0, 0]]
    }, 
    {
      "op": "FullyConnected", 
      "name": "deeparpredictionnetwork0_lstm1_t12_i2h", 
      "attrs": {"num_hidden": "160"}, 
      "inputs": [[382, 0, 0], [673, 0, 0], [674, 0, 0]]
    }, 
    {
      "op": "FullyConnected", 
      "name": "deeparpredictionnetwork0_lstm1_t11_i2h", 
      "attrs": {"num_hidden": "160"}, 
      "inputs": [[364, 0, 0], [673, 0, 0], [674, 0, 0]]
    }, 
    {
      "op": "FullyConnected", 
      "name": "deeparpredictionnetwork0_lstm1_t10_i2h", 
      "attrs": {"num_hidden": "160"}, 
      "inputs": [[346, 0, 0], [673, 0, 0], [674, 0, 0]]
    }, 
    {
      "op": "FullyConnected", 
      "name": "deeparpredictionnetwork0_lstm1_t9_i2h", 
      "attrs": {"num_hidden": "160"}, 
      "inputs": [[328, 0, 0], [673, 0, 0], [674, 0, 0]]
    }, 
    {
      "op": "FullyConnected", 
      "name": "deeparpredictionnetwork0_lstm1_t8_i2h", 
      "attrs": {"num_hidden": "160"}, 
      "inputs": [[310, 0, 0], [673, 0, 0], [674, 0, 0]]
    }, 
    {
      "op": "FullyConnected", 
      "name": "deeparpredictionnetwork0_lstm1_t7_i2h", 
      "attrs": {"num_hidden": "160"}, 
      "inputs": [[292, 0, 0], [673, 0, 0], [674, 0, 0]]
    }, 
    {
      "op": "FullyConnected", 
      "name": "deeparpredictionnetwork0_lstm1_t6_i2h", 
      "attrs": {"num_hidden": "160"}, 
      "inputs": [[274, 0, 0], [673, 0, 0], [674, 0, 0]]
    }, 
    {
      "op": "FullyConnected", 
      "name": "deeparpredictionnetwork0_lstm1_t5_i2h", 
      "attrs": {"num_hidden": "160"}, 
      "inputs": [[256, 0, 0], [673, 0, 0], [674, 0, 0]]
    }, 
    {
      "op": "FullyConnected", 
      "name": "deeparpredictionnetwork0_lstm1_t4_i2h", 
      "attrs": {"num_hidden": "160"}, 
      "inputs": [[238, 0, 0], [673, 0, 0], [674, 0, 0]]
    }, 
    {
      "op": "FullyConnected", 
      "name": "deeparpredictionnetwork0_lstm1_t3_i2h", 
      "attrs": {"num_hidden": "160"}, 
      "inputs": [[220, 0, 0], [673, 0, 0], [674, 0, 0]]
    }, 
    {
      "op": "FullyConnected", 
      "name": "deeparpredictionnetwork0_lstm1_t2_i2h", 
      "attrs": {"num_hidden": "160"}, 
      "inputs": [[202, 0, 0], [673, 0, 0], [674, 0, 0]]
    }, 
    {
      "op": "FullyConnected", 
      "name": "deeparpredictionnetwork0_lstm1_t1_i2h", 
      "attrs": {"num_hidden": "160"}, 
      "inputs": [[184, 0, 0], [673, 0, 0], [674, 0, 0]]
    }, 
    {
      "op": "FullyConnected", 
      "name": "deeparpredictionnetwork0_lstm1_t0_i2h", 
      "attrs": {"num_hidden": "160"}, 
      "inputs": [[166, 0, 0], [673, 0, 0], [674, 0, 0]]
    }, 
    {
      "op": "slice_axis", 
      "name": "deeparpredictionnetwork0_slice_axis36", 
      "attrs": {
        "axis": "1", 
        "begin": "0", 
        "end": "1"
      }, 
      "inputs": [[144, 0, 0]]
    }, 
    {
      "op": "repeat", 
      "name": "deeparpredictionnetwork0_repeat3", 
      "attrs": {
        "axis": "1", 
        "repeats": "40"
      }, 
      "inputs": [[704, 0, 0]]
    }, 
    {
      "op": "_zeros", 
      "name": "deeparpredictionnetwork0_deeparpredictionnetwork0_lstm1_begin_state_0", 
      "attrs": {
        "__layout__": "NC", 
        "dtype": "float32", 
        "shape": "(1, 40)"
      }, 
      "inputs": []
    }, 
    {
      "op": "where", 
      "name": "deeparpredictionnetwork0_where2", 
      "inputs": [[705, 0, 0], [706, 0, 0], [706, 0, 0]]
    }, 
    {
      "op": "null", 
      "name": "deeparpredictionnetwork0_lstm1_h2h_weight", 
      "attrs": {
        "__dtype__": "0", 
        "__lr_mult__": "1.0", 
        "__shape__": "(160, 40)", 
        "__storage_type__": "0", 
        "__wd_mult__": "1.0"
      }, 
      "inputs": []
    }, 
    {
      "op": "null", 
      "name": "deeparpredictionnetwork0_lstm1_h2h_bias", 
      "attrs": {
        "__dtype__": "0", 
        "__init__": "zeros", 
        "__lr_mult__": "1.0", 
        "__shape__": "(160,)", 
        "__storage_type__": "0", 
        "__wd_mult__": "1.0"
      }, 
      "inputs": []
    }, 
    {
      "op": "FullyConnected", 
      "name": "deeparpredictionnetwork0_lstm1_t0_h2h", 
      "attrs": {"num_hidden": "160"}, 
      "inputs": [[707, 0, 0], [708, 0, 0], [709, 0, 0]]
    }, 
    {
      "op": "elemwise_add", 
      "name": "deeparpredictionnetwork0_lstm1_t0_plus0", 
      "inputs": [[703, 0, 0], [710, 0, 0]]
    }, 
    {
      "op": "SliceChannel", 
      "name": "deeparpredictionnetwork0_lstm1_t0_slice", 
      "attrs": {"num_outputs": "4"}, 
      "inputs": [[711, 0, 0]]
    }, 
    {
      "op": "sigmoid", 
      "name": "deeparpredictionnetwork0_lstm1_t0_o", 
      "inputs": [[712, 3, 0]]
    }, 
    {
      "op": "sigmoid", 
      "name": "deeparpredictionnetwork0_lstm1_t0_f", 
      "inputs": [[712, 1, 0]]
    }, 
    {
      "op": "slice_axis", 
      "name": "deeparpredictionnetwork0_slice_axis37", 
      "attrs": {
        "axis": "1", 
        "begin": "0", 
        "end": "1"
      }, 
      "inputs": [[144, 0, 0]]
    }, 
    {
      "op": "repeat", 
      "name": "deeparpredictionnetwork0_repeat4", 
      "attrs": {
        "axis": "1", 
        "repeats": "40"
      }, 
      "inputs": [[715, 0, 0]]
    }, 
    {
      "op": "_zeros", 
      "name": "deeparpredictionnetwork0_deeparpredictionnetwork0_lstm1_begin_state_1", 
      "attrs": {
        "__layout__": "NC", 
        "dtype": "float32", 
        "shape": "(1, 40)"
      }, 
      "inputs": []
    }, 
    {
      "op": "where", 
      "name": "deeparpredictionnetwork0_where3", 
      "inputs": [[716, 0, 0], [717, 0, 0], [717, 0, 0]]
    }, 
    {
      "op": "elemwise_mul", 
      "name": "deeparpredictionnetwork0_lstm1_t0_mul0", 
      "inputs": [[714, 0, 0], [718, 0, 0]]
    }, 
    {
      "op": "sigmoid", 
      "name": "deeparpredictionnetwork0_lstm1_t0_i", 
      "inputs": [[712, 0, 0]]
    }, 
    {
      "op": "tanh", 
      "name": "deeparpredictionnetwork0_lstm1_t0_c", 
      "inputs": [[712, 2, 0]]
    }, 
    {
      "op": "elemwise_mul", 
      "name": "deeparpredictionnetwork0_lstm1_t0_mul1", 
      "inputs": [[720, 0, 0], [721, 0, 0]]
    }, 
    {
      "op": "elemwise_add", 
      "name": "deeparpredictionnetwork0_lstm1_t0_state", 
      "inputs": [[719, 0, 0], [722, 0, 0]]
    }, 
    {
      "op": "Activation", 
      "name": "deeparpredictionnetwork0_lstm1_t0_activation0", 
      "attrs": {"act_type": "tanh"}, 
      "inputs": [[723, 0, 0]]
    }, 
    {
      "op": "elemwise_mul", 
      "name": "deeparpredictionnetwork0_lstm1_t0_out", 
      "inputs": [[713, 0, 0], [724, 0, 0]]
    }, 
    {
      "op": "ones_like", 
      "name": "deeparpredictionnetwork0_deeparpredictionnetwork0_deeparpredictionnetwork0_lstm1_residualcellzoneoutones_like0", 
      "inputs": [[725, 0, 0]]
    }, 
    {
      "op": "Dropout", 
      "name": "deeparpredictionnetwork0_deeparpredictionnetwork0_deeparpredictionnetwork0_lstm1_residualcellzoneoutdropout0", 
      "attrs": {"p": "0.1"}, 
      "inputs": [[726, 0, 0]]
    }, 
    {
      "op": "where", 
      "name": "deeparpredictionnetwork0_deeparpredictionnetwork0_deeparpredictionnetwork0_lstm1_residualcellzoneoutwhere0", 
      "inputs": [[727, 0, 0], [725, 0, 0], [707, 0, 0]]
    }, 
    {
      "op": "FullyConnected", 
      "name": "deeparpredictionnetwork0_lstm1_t1_h2h", 
      "attrs": {"num_hidden": "160"}, 
      "inputs": [[728, 0, 0], [708, 0, 0], [709, 0, 0]]
    }, 
    {
      "op": "elemwise_add", 
      "name": "deeparpredictionnetwork0_lstm1_t1_plus0", 
      "inputs": [[702, 0, 0], [729, 0, 0]]
    }, 
    {
      "op": "SliceChannel", 
      "name": "deeparpredictionnetwork0_lstm1_t1_slice", 
      "attrs": {"num_outputs": "4"}, 
      "inputs": [[730, 0, 0]]
    }, 
    {
      "op": "sigmoid", 
      "name": "deeparpredictionnetwork0_lstm1_t1_o", 
      "inputs": [[731, 3, 0]]
    }, 
    {
      "op": "sigmoid", 
      "name": "deeparpredictionnetwork0_lstm1_t1_f", 
      "inputs": [[731, 1, 0]]
    }, 
    {
      "op": "ones_like", 
      "name": "deeparpredictionnetwork0_deeparpredictionnetwork0_deeparpredictionnetwork0_lstm1_residualcellzoneoutones_like1", 
      "inputs": [[723, 0, 0]]
    }, 
    {
      "op": "Dropout", 
      "name": "deeparpredictionnetwork0_deeparpredictionnetwork0_deeparpredictionnetwork0_lstm1_residualcellzoneoutdropout1", 
      "attrs": {"p": "0.1"}, 
      "inputs": [[734, 0, 0]]
    }, 
    {
      "op": "where", 
      "name": "deeparpredictionnetwork0_deeparpredictionnetwork0_deeparpredictionnetwork0_lstm1_residualcellzoneoutwhere1", 
      "inputs": [[735, 0, 0], [723, 0, 0], [718, 0, 0]]
    }, 
    {
      "op": "elemwise_mul", 
      "name": "deeparpredictionnetwork0_lstm1_t1_mul0", 
      "inputs": [[733, 0, 0], [736, 0, 0]]
    }, 
    {
      "op": "sigmoid", 
      "name": "deeparpredictionnetwork0_lstm1_t1_i", 
      "inputs": [[731, 0, 0]]
    }, 
    {
      "op": "tanh", 
      "name": "deeparpredictionnetwork0_lstm1_t1_c", 
      "inputs": [[731, 2, 0]]
    }, 
    {
      "op": "elemwise_mul", 
      "name": "deeparpredictionnetwork0_lstm1_t1_mul1", 
      "inputs": [[738, 0, 0], [739, 0, 0]]
    }, 
    {
      "op": "elemwise_add", 
      "name": "deeparpredictionnetwork0_lstm1_t1_state", 
      "inputs": [[737, 0, 0], [740, 0, 0]]
    }, 
    {
      "op": "Activation", 
      "name": "deeparpredictionnetwork0_lstm1_t1_activation0", 
      "attrs": {"act_type": "tanh"}, 
      "inputs": [[741, 0, 0]]
    }, 
    {
      "op": "elemwise_mul", 
      "name": "deeparpredictionnetwork0_lstm1_t1_out", 
      "inputs": [[732, 0, 0], [742, 0, 0]]
    }, 
    {
      "op": "ones_like", 
      "name": "deeparpredictionnetwork0_deeparpredictionnetwork0_deeparpredictionnetwork0_lstm1_residualcellzoneoutones_like0", 
      "inputs": [[743, 0, 0]]
    }, 
    {
      "op": "Dropout", 
      "name": "deeparpredictionnetwork0_deeparpredictionnetwork0_deeparpredictionnetwork0_lstm1_residualcellzoneoutdropout0", 
      "attrs": {"p": "0.1"}, 
      "inputs": [[744, 0, 0]]
    }, 
    {
      "op": "where", 
      "name": "deeparpredictionnetwork0_deeparpredictionnetwork0_deeparpredictionnetwork0_lstm1_residualcellzoneoutwhere0", 
      "inputs": [[745, 0, 0], [743, 0, 0], [728, 0, 0]]
    }, 
    {
      "op": "FullyConnected", 
      "name": "deeparpredictionnetwork0_lstm1_t2_h2h", 
      "attrs": {"num_hidden": "160"}, 
      "inputs": [[746, 0, 0], [708, 0, 0], [709, 0, 0]]
    }, 
    {
      "op": "elemwise_add", 
      "name": "deeparpredictionnetwork0_lstm1_t2_plus0", 
      "inputs": [[701, 0, 0], [747, 0, 0]]
    }, 
    {
      "op": "SliceChannel", 
      "name": "deeparpredictionnetwork0_lstm1_t2_slice", 
      "attrs": {"num_outputs": "4"}, 
      "inputs": [[748, 0, 0]]
    }, 
    {
      "op": "sigmoid", 
      "name": "deeparpredictionnetwork0_lstm1_t2_o", 
      "inputs": [[749, 3, 0]]
    }, 
    {
      "op": "sigmoid", 
      "name": "deeparpredictionnetwork0_lstm1_t2_f", 
      "inputs": [[749, 1, 0]]
    }, 
    {
      "op": "ones_like", 
      "name": "deeparpredictionnetwork0_deeparpredictionnetwork0_deeparpredictionnetwork0_lstm1_residualcellzoneoutones_like1", 
      "inputs": [[741, 0, 0]]
    }, 
    {
      "op": "Dropout", 
      "name": "deeparpredictionnetwork0_deeparpredictionnetwork0_deeparpredictionnetwork0_lstm1_residualcellzoneoutdropout1", 
      "attrs": {"p": "0.1"}, 
      "inputs": [[752, 0, 0]]
    }, 
    {
      "op": "where", 
      "name": "deeparpredictionnetwork0_deeparpredictionnetwork0_deeparpredictionnetwork0_lstm1_residualcellzoneoutwhere1", 
      "inputs": [[753, 0, 0], [741, 0, 0], [736, 0, 0]]
    }, 
    {
      "op": "elemwise_mul", 
      "name": "deeparpredictionnetwork0_lstm1_t2_mul0", 
      "inputs": [[751, 0, 0], [754, 0, 0]]
    }, 
    {
      "op": "sigmoid", 
      "name": "deeparpredictionnetwork0_lstm1_t2_i", 
      "inputs": [[749, 0, 0]]
    }, 
    {
      "op": "tanh", 
      "name": "deeparpredictionnetwork0_lstm1_t2_c", 
      "inputs": [[749, 2, 0]]
    }, 
    {
      "op": "elemwise_mul", 
      "name": "deeparpredictionnetwork0_lstm1_t2_mul1", 
      "inputs": [[756, 0, 0], [757, 0, 0]]
    }, 
    {
      "op": "elemwise_add", 
      "name": "deeparpredictionnetwork0_lstm1_t2_state", 
      "inputs": [[755, 0, 0], [758, 0, 0]]
    }, 
    {
      "op": "Activation", 
      "name": "deeparpredictionnetwork0_lstm1_t2_activation0", 
      "attrs": {"act_type": "tanh"}, 
      "inputs": [[759, 0, 0]]
    }, 
    {
      "op": "elemwise_mul", 
      "name": "deeparpredictionnetwork0_lstm1_t2_out", 
      "inputs": [[750, 0, 0], [760, 0, 0]]
    }, 
    {
      "op": "ones_like", 
      "name": "deeparpredictionnetwork0_deeparpredictionnetwork0_deeparpredictionnetwork0_lstm1_residualcellzoneoutones_like0", 
      "inputs": [[761, 0, 0]]
    }, 
    {
      "op": "Dropout", 
      "name": "deeparpredictionnetwork0_deeparpredictionnetwork0_deeparpredictionnetwork0_lstm1_residualcellzoneoutdropout0", 
      "attrs": {"p": "0.1"}, 
      "inputs": [[762, 0, 0]]
    }, 
    {
      "op": "where", 
      "name": "deeparpredictionnetwork0_deeparpredictionnetwork0_deeparpredictionnetwork0_lstm1_residualcellzoneoutwhere0", 
      "inputs": [[763, 0, 0], [761, 0, 0], [746, 0, 0]]
    }, 
    {
      "op": "FullyConnected", 
      "name": "deeparpredictionnetwork0_lstm1_t3_h2h", 
      "attrs": {"num_hidden": "160"}, 
      "inputs": [[764, 0, 0], [708, 0, 0], [709, 0, 0]]
    }, 
    {
      "op": "elemwise_add", 
      "name": "deeparpredictionnetwork0_lstm1_t3_plus0", 
      "inputs": [[700, 0, 0], [765, 0, 0]]
    }, 
    {
      "op": "SliceChannel", 
      "name": "deeparpredictionnetwork0_lstm1_t3_slice", 
      "attrs": {"num_outputs": "4"}, 
      "inputs": [[766, 0, 0]]
    }, 
    {
      "op": "sigmoid", 
      "name": "deeparpredictionnetwork0_lstm1_t3_o", 
      "inputs": [[767, 3, 0]]
    }, 
    {
      "op": "sigmoid", 
      "name": "deeparpredictionnetwork0_lstm1_t3_f", 
      "inputs": [[767, 1, 0]]
    }, 
    {
      "op": "ones_like", 
      "name": "deeparpredictionnetwork0_deeparpredictionnetwork0_deeparpredictionnetwork0_lstm1_residualcellzoneoutones_like1", 
      "inputs": [[759, 0, 0]]
    }, 
    {
      "op": "Dropout", 
      "name": "deeparpredictionnetwork0_deeparpredictionnetwork0_deeparpredictionnetwork0_lstm1_residualcellzoneoutdropout1", 
      "attrs": {"p": "0.1"}, 
      "inputs": [[770, 0, 0]]
    }, 
    {
      "op": "where", 
      "name": "deeparpredictionnetwork0_deeparpredictionnetwork0_deeparpredictionnetwork0_lstm1_residualcellzoneoutwhere1", 
      "inputs": [[771, 0, 0], [759, 0, 0], [754, 0, 0]]
    }, 
    {
      "op": "elemwise_mul", 
      "name": "deeparpredictionnetwork0_lstm1_t3_mul0", 
      "inputs": [[769, 0, 0], [772, 0, 0]]
    }, 
    {
      "op": "sigmoid", 
      "name": "deeparpredictionnetwork0_lstm1_t3_i", 
      "inputs": [[767, 0, 0]]
    }, 
    {
      "op": "tanh", 
      "name": "deeparpredictionnetwork0_lstm1_t3_c", 
      "inputs": [[767, 2, 0]]
    }, 
    {
      "op": "elemwise_mul", 
      "name": "deeparpredictionnetwork0_lstm1_t3_mul1", 
      "inputs": [[774, 0, 0], [775, 0, 0]]
    }, 
    {
      "op": "elemwise_add", 
      "name": "deeparpredictionnetwork0_lstm1_t3_state", 
      "inputs": [[773, 0, 0], [776, 0, 0]]
    }, 
    {
      "op": "Activation", 
      "name": "deeparpredictionnetwork0_lstm1_t3_activation0", 
      "attrs": {"act_type": "tanh"}, 
      "inputs": [[777, 0, 0]]
    }, 
    {
      "op": "elemwise_mul", 
      "name": "deeparpredictionnetwork0_lstm1_t3_out", 
      "inputs": [[768, 0, 0], [778, 0, 0]]
    }, 
    {
      "op": "ones_like", 
      "name": "deeparpredictionnetwork0_deeparpredictionnetwork0_deeparpredictionnetwork0_lstm1_residualcellzoneoutones_like0", 
      "inputs": [[779, 0, 0]]
    }, 
    {
      "op": "Dropout", 
      "name": "deeparpredictionnetwork0_deeparpredictionnetwork0_deeparpredictionnetwork0_lstm1_residualcellzoneoutdropout0", 
      "attrs": {"p": "0.1"}, 
      "inputs": [[780, 0, 0]]
    }, 
    {
      "op": "where", 
      "name": "deeparpredictionnetwork0_deeparpredictionnetwork0_deeparpredictionnetwork0_lstm1_residualcellzoneoutwhere0", 
      "inputs": [[781, 0, 0], [779, 0, 0], [764, 0, 0]]
    }, 
    {
      "op": "FullyConnected", 
      "name": "deeparpredictionnetwork0_lstm1_t4_h2h", 
      "attrs": {"num_hidden": "160"}, 
      "inputs": [[782, 0, 0], [708, 0, 0], [709, 0, 0]]
    }, 
    {
      "op": "elemwise_add", 
      "name": "deeparpredictionnetwork0_lstm1_t4_plus0", 
      "inputs": [[699, 0, 0], [783, 0, 0]]
    }, 
    {
      "op": "SliceChannel", 
      "name": "deeparpredictionnetwork0_lstm1_t4_slice", 
      "attrs": {"num_outputs": "4"}, 
      "inputs": [[784, 0, 0]]
    }, 
    {
      "op": "sigmoid", 
      "name": "deeparpredictionnetwork0_lstm1_t4_o", 
      "inputs": [[785, 3, 0]]
    }, 
    {
      "op": "sigmoid", 
      "name": "deeparpredictionnetwork0_lstm1_t4_f", 
      "inputs": [[785, 1, 0]]
    }, 
    {
      "op": "ones_like", 
      "name": "deeparpredictionnetwork0_deeparpredictionnetwork0_deeparpredictionnetwork0_lstm1_residualcellzoneoutones_like1", 
      "inputs": [[777, 0, 0]]
    }, 
    {
      "op": "Dropout", 
      "name": "deeparpredictionnetwork0_deeparpredictionnetwork0_deeparpredictionnetwork0_lstm1_residualcellzoneoutdropout1", 
      "attrs": {"p": "0.1"}, 
      "inputs": [[788, 0, 0]]
    }, 
    {
      "op": "where", 
      "name": "deeparpredictionnetwork0_deeparpredictionnetwork0_deeparpredictionnetwork0_lstm1_residualcellzoneoutwhere1", 
      "inputs": [[789, 0, 0], [777, 0, 0], [772, 0, 0]]
    }, 
    {
      "op": "elemwise_mul", 
      "name": "deeparpredictionnetwork0_lstm1_t4_mul0", 
      "inputs": [[787, 0, 0], [790, 0, 0]]
    }, 
    {
      "op": "sigmoid", 
      "name": "deeparpredictionnetwork0_lstm1_t4_i", 
      "inputs": [[785, 0, 0]]
    }, 
    {
      "op": "tanh", 
      "name": "deeparpredictionnetwork0_lstm1_t4_c", 
      "inputs": [[785, 2, 0]]
    }, 
    {
      "op": "elemwise_mul", 
      "name": "deeparpredictionnetwork0_lstm1_t4_mul1", 
      "inputs": [[792, 0, 0], [793, 0, 0]]
    }, 
    {
      "op": "elemwise_add", 
      "name": "deeparpredictionnetwork0_lstm1_t4_state", 
      "inputs": [[791, 0, 0], [794, 0, 0]]
    }, 
    {
      "op": "Activation", 
      "name": "deeparpredictionnetwork0_lstm1_t4_activation0", 
      "attrs": {"act_type": "tanh"}, 
      "inputs": [[795, 0, 0]]
    }, 
    {
      "op": "elemwise_mul", 
      "name": "deeparpredictionnetwork0_lstm1_t4_out", 
      "inputs": [[786, 0, 0], [796, 0, 0]]
    }, 
    {
      "op": "ones_like", 
      "name": "deeparpredictionnetwork0_deeparpredictionnetwork0_deeparpredictionnetwork0_lstm1_residualcellzoneoutones_like0", 
      "inputs": [[797, 0, 0]]
    }, 
    {
      "op": "Dropout", 
      "name": "deeparpredictionnetwork0_deeparpredictionnetwork0_deeparpredictionnetwork0_lstm1_residualcellzoneoutdropout0", 
      "attrs": {"p": "0.1"}, 
      "inputs": [[798, 0, 0]]
    }, 
    {
      "op": "where", 
      "name": "deeparpredictionnetwork0_deeparpredictionnetwork0_deeparpredictionnetwork0_lstm1_residualcellzoneoutwhere0", 
      "inputs": [[799, 0, 0], [797, 0, 0], [782, 0, 0]]
    }, 
    {
      "op": "FullyConnected", 
      "name": "deeparpredictionnetwork0_lstm1_t5_h2h", 
      "attrs": {"num_hidden": "160"}, 
      "inputs": [[800, 0, 0], [708, 0, 0], [709, 0, 0]]
    }, 
    {
      "op": "elemwise_add", 
      "name": "deeparpredictionnetwork0_lstm1_t5_plus0", 
      "inputs": [[698, 0, 0], [801, 0, 0]]
    }, 
    {
      "op": "SliceChannel", 
      "name": "deeparpredictionnetwork0_lstm1_t5_slice", 
      "attrs": {"num_outputs": "4"}, 
      "inputs": [[802, 0, 0]]
    }, 
    {
      "op": "sigmoid", 
      "name": "deeparpredictionnetwork0_lstm1_t5_o", 
      "inputs": [[803, 3, 0]]
    }, 
    {
      "op": "sigmoid", 
      "name": "deeparpredictionnetwork0_lstm1_t5_f", 
      "inputs": [[803, 1, 0]]
    }, 
    {
      "op": "ones_like", 
      "name": "deeparpredictionnetwork0_deeparpredictionnetwork0_deeparpredictionnetwork0_lstm1_residualcellzoneoutones_like1", 
      "inputs": [[795, 0, 0]]
    }, 
    {
      "op": "Dropout", 
      "name": "deeparpredictionnetwork0_deeparpredictionnetwork0_deeparpredictionnetwork0_lstm1_residualcellzoneoutdropout1", 
      "attrs": {"p": "0.1"}, 
      "inputs": [[806, 0, 0]]
    }, 
    {
      "op": "where", 
      "name": "deeparpredictionnetwork0_deeparpredictionnetwork0_deeparpredictionnetwork0_lstm1_residualcellzoneoutwhere1", 
      "inputs": [[807, 0, 0], [795, 0, 0], [790, 0, 0]]
    }, 
    {
      "op": "elemwise_mul", 
      "name": "deeparpredictionnetwork0_lstm1_t5_mul0", 
      "inputs": [[805, 0, 0], [808, 0, 0]]
    }, 
    {
      "op": "sigmoid", 
      "name": "deeparpredictionnetwork0_lstm1_t5_i", 
      "inputs": [[803, 0, 0]]
    }, 
    {
      "op": "tanh", 
      "name": "deeparpredictionnetwork0_lstm1_t5_c", 
      "inputs": [[803, 2, 0]]
    }, 
    {
      "op": "elemwise_mul", 
      "name": "deeparpredictionnetwork0_lstm1_t5_mul1", 
      "inputs": [[810, 0, 0], [811, 0, 0]]
    }, 
    {
      "op": "elemwise_add", 
      "name": "deeparpredictionnetwork0_lstm1_t5_state", 
      "inputs": [[809, 0, 0], [812, 0, 0]]
    }, 
    {
      "op": "Activation", 
      "name": "deeparpredictionnetwork0_lstm1_t5_activation0", 
      "attrs": {"act_type": "tanh"}, 
      "inputs": [[813, 0, 0]]
    }, 
    {
      "op": "elemwise_mul", 
      "name": "deeparpredictionnetwork0_lstm1_t5_out", 
      "inputs": [[804, 0, 0], [814, 0, 0]]
    }, 
    {
      "op": "ones_like", 
      "name": "deeparpredictionnetwork0_deeparpredictionnetwork0_deeparpredictionnetwork0_lstm1_residualcellzoneoutones_like0", 
      "inputs": [[815, 0, 0]]
    }, 
    {
      "op": "Dropout", 
      "name": "deeparpredictionnetwork0_deeparpredictionnetwork0_deeparpredictionnetwork0_lstm1_residualcellzoneoutdropout0", 
      "attrs": {"p": "0.1"}, 
      "inputs": [[816, 0, 0]]
    }, 
    {
      "op": "where", 
      "name": "deeparpredictionnetwork0_deeparpredictionnetwork0_deeparpredictionnetwork0_lstm1_residualcellzoneoutwhere0", 
      "inputs": [[817, 0, 0], [815, 0, 0], [800, 0, 0]]
    }, 
    {
      "op": "FullyConnected", 
      "name": "deeparpredictionnetwork0_lstm1_t6_h2h", 
      "attrs": {"num_hidden": "160"}, 
      "inputs": [[818, 0, 0], [708, 0, 0], [709, 0, 0]]
    }, 
    {
      "op": "elemwise_add", 
      "name": "deeparpredictionnetwork0_lstm1_t6_plus0", 
      "inputs": [[697, 0, 0], [819, 0, 0]]
    }, 
    {
      "op": "SliceChannel", 
      "name": "deeparpredictionnetwork0_lstm1_t6_slice", 
      "attrs": {"num_outputs": "4"}, 
      "inputs": [[820, 0, 0]]
    }, 
    {
      "op": "sigmoid", 
      "name": "deeparpredictionnetwork0_lstm1_t6_o", 
      "inputs": [[821, 3, 0]]
    }, 
    {
      "op": "sigmoid", 
      "name": "deeparpredictionnetwork0_lstm1_t6_f", 
      "inputs": [[821, 1, 0]]
    }, 
    {
      "op": "ones_like", 
      "name": "deeparpredictionnetwork0_deeparpredictionnetwork0_deeparpredictionnetwork0_lstm1_residualcellzoneoutones_like1", 
      "inputs": [[813, 0, 0]]
    }, 
    {
      "op": "Dropout", 
      "name": "deeparpredictionnetwork0_deeparpredictionnetwork0_deeparpredictionnetwork0_lstm1_residualcellzoneoutdropout1", 
      "attrs": {"p": "0.1"}, 
      "inputs": [[824, 0, 0]]
    }, 
    {
      "op": "where", 
      "name": "deeparpredictionnetwork0_deeparpredictionnetwork0_deeparpredictionnetwork0_lstm1_residualcellzoneoutwhere1", 
      "inputs": [[825, 0, 0], [813, 0, 0], [808, 0, 0]]
    }, 
    {
      "op": "elemwise_mul", 
      "name": "deeparpredictionnetwork0_lstm1_t6_mul0", 
      "inputs": [[823, 0, 0], [826, 0, 0]]
    }, 
    {
      "op": "sigmoid", 
      "name": "deeparpredictionnetwork0_lstm1_t6_i", 
      "inputs": [[821, 0, 0]]
    }, 
    {
      "op": "tanh", 
      "name": "deeparpredictionnetwork0_lstm1_t6_c", 
      "inputs": [[821, 2, 0]]
    }, 
    {
      "op": "elemwise_mul", 
      "name": "deeparpredictionnetwork0_lstm1_t6_mul1", 
      "inputs": [[828, 0, 0], [829, 0, 0]]
    }, 
    {
      "op": "elemwise_add", 
      "name": "deeparpredictionnetwork0_lstm1_t6_state", 
      "inputs": [[827, 0, 0], [830, 0, 0]]
    }, 
    {
      "op": "Activation", 
      "name": "deeparpredictionnetwork0_lstm1_t6_activation0", 
      "attrs": {"act_type": "tanh"}, 
      "inputs": [[831, 0, 0]]
    }, 
    {
      "op": "elemwise_mul", 
      "name": "deeparpredictionnetwork0_lstm1_t6_out", 
      "inputs": [[822, 0, 0], [832, 0, 0]]
    }, 
    {
      "op": "ones_like", 
      "name": "deeparpredictionnetwork0_deeparpredictionnetwork0_deeparpredictionnetwork0_lstm1_residualcellzoneoutones_like0", 
      "inputs": [[833, 0, 0]]
    }, 
    {
      "op": "Dropout", 
      "name": "deeparpredictionnetwork0_deeparpredictionnetwork0_deeparpredictionnetwork0_lstm1_residualcellzoneoutdropout0", 
      "attrs": {"p": "0.1"}, 
      "inputs": [[834, 0, 0]]
    }, 
    {
      "op": "where", 
      "name": "deeparpredictionnetwork0_deeparpredictionnetwork0_deeparpredictionnetwork0_lstm1_residualcellzoneoutwhere0", 
      "inputs": [[835, 0, 0], [833, 0, 0], [818, 0, 0]]
    }, 
    {
      "op": "FullyConnected", 
      "name": "deeparpredictionnetwork0_lstm1_t7_h2h", 
      "attrs": {"num_hidden": "160"}, 
      "inputs": [[836, 0, 0], [708, 0, 0], [709, 0, 0]]
    }, 
    {
      "op": "elemwise_add", 
      "name": "deeparpredictionnetwork0_lstm1_t7_plus0", 
      "inputs": [[696, 0, 0], [837, 0, 0]]
    }, 
    {
      "op": "SliceChannel", 
      "name": "deeparpredictionnetwork0_lstm1_t7_slice", 
      "attrs": {"num_outputs": "4"}, 
      "inputs": [[838, 0, 0]]
    }, 
    {
      "op": "sigmoid", 
      "name": "deeparpredictionnetwork0_lstm1_t7_o", 
      "inputs": [[839, 3, 0]]
    }, 
    {
      "op": "sigmoid", 
      "name": "deeparpredictionnetwork0_lstm1_t7_f", 
      "inputs": [[839, 1, 0]]
    }, 
    {
      "op": "ones_like", 
      "name": "deeparpredictionnetwork0_deeparpredictionnetwork0_deeparpredictionnetwork0_lstm1_residualcellzoneoutones_like1", 
      "inputs": [[831, 0, 0]]
    }, 
    {
      "op": "Dropout", 
      "name": "deeparpredictionnetwork0_deeparpredictionnetwork0_deeparpredictionnetwork0_lstm1_residualcellzoneoutdropout1", 
      "attrs": {"p": "0.1"}, 
      "inputs": [[842, 0, 0]]
    }, 
    {
      "op": "where", 
      "name": "deeparpredictionnetwork0_deeparpredictionnetwork0_deeparpredictionnetwork0_lstm1_residualcellzoneoutwhere1", 
      "inputs": [[843, 0, 0], [831, 0, 0], [826, 0, 0]]
    }, 
    {
      "op": "elemwise_mul", 
      "name": "deeparpredictionnetwork0_lstm1_t7_mul0", 
      "inputs": [[841, 0, 0], [844, 0, 0]]
    }, 
    {
      "op": "sigmoid", 
      "name": "deeparpredictionnetwork0_lstm1_t7_i", 
      "inputs": [[839, 0, 0]]
    }, 
    {
      "op": "tanh", 
      "name": "deeparpredictionnetwork0_lstm1_t7_c", 
      "inputs": [[839, 2, 0]]
    }, 
    {
      "op": "elemwise_mul", 
      "name": "deeparpredictionnetwork0_lstm1_t7_mul1", 
      "inputs": [[846, 0, 0], [847, 0, 0]]
    }, 
    {
      "op": "elemwise_add", 
      "name": "deeparpredictionnetwork0_lstm1_t7_state", 
      "inputs": [[845, 0, 0], [848, 0, 0]]
    }, 
    {
      "op": "Activation", 
      "name": "deeparpredictionnetwork0_lstm1_t7_activation0", 
      "attrs": {"act_type": "tanh"}, 
      "inputs": [[849, 0, 0]]
    }, 
    {
      "op": "elemwise_mul", 
      "name": "deeparpredictionnetwork0_lstm1_t7_out", 
      "inputs": [[840, 0, 0], [850, 0, 0]]
    }, 
    {
      "op": "ones_like", 
      "name": "deeparpredictionnetwork0_deeparpredictionnetwork0_deeparpredictionnetwork0_lstm1_residualcellzoneoutones_like0", 
      "inputs": [[851, 0, 0]]
    }, 
    {
      "op": "Dropout", 
      "name": "deeparpredictionnetwork0_deeparpredictionnetwork0_deeparpredictionnetwork0_lstm1_residualcellzoneoutdropout0", 
      "attrs": {"p": "0.1"}, 
      "inputs": [[852, 0, 0]]
    }, 
    {
      "op": "where", 
      "name": "deeparpredictionnetwork0_deeparpredictionnetwork0_deeparpredictionnetwork0_lstm1_residualcellzoneoutwhere0", 
      "inputs": [[853, 0, 0], [851, 0, 0], [836, 0, 0]]
    }, 
    {
      "op": "FullyConnected", 
      "name": "deeparpredictionnetwork0_lstm1_t8_h2h", 
      "attrs": {"num_hidden": "160"}, 
      "inputs": [[854, 0, 0], [708, 0, 0], [709, 0, 0]]
    }, 
    {
      "op": "elemwise_add", 
      "name": "deeparpredictionnetwork0_lstm1_t8_plus0", 
      "inputs": [[695, 0, 0], [855, 0, 0]]
    }, 
    {
      "op": "SliceChannel", 
      "name": "deeparpredictionnetwork0_lstm1_t8_slice", 
      "attrs": {"num_outputs": "4"}, 
      "inputs": [[856, 0, 0]]
    }, 
    {
      "op": "sigmoid", 
      "name": "deeparpredictionnetwork0_lstm1_t8_o", 
      "inputs": [[857, 3, 0]]
    }, 
    {
      "op": "sigmoid", 
      "name": "deeparpredictionnetwork0_lstm1_t8_f", 
      "inputs": [[857, 1, 0]]
    }, 
    {
      "op": "ones_like", 
      "name": "deeparpredictionnetwork0_deeparpredictionnetwork0_deeparpredictionnetwork0_lstm1_residualcellzoneoutones_like1", 
      "inputs": [[849, 0, 0]]
    }, 
    {
      "op": "Dropout", 
      "name": "deeparpredictionnetwork0_deeparpredictionnetwork0_deeparpredictionnetwork0_lstm1_residualcellzoneoutdropout1", 
      "attrs": {"p": "0.1"}, 
      "inputs": [[860, 0, 0]]
    }, 
    {
      "op": "where", 
      "name": "deeparpredictionnetwork0_deeparpredictionnetwork0_deeparpredictionnetwork0_lstm1_residualcellzoneoutwhere1", 
      "inputs": [[861, 0, 0], [849, 0, 0], [844, 0, 0]]
    }, 
    {
      "op": "elemwise_mul", 
      "name": "deeparpredictionnetwork0_lstm1_t8_mul0", 
      "inputs": [[859, 0, 0], [862, 0, 0]]
    }, 
    {
      "op": "sigmoid", 
      "name": "deeparpredictionnetwork0_lstm1_t8_i", 
      "inputs": [[857, 0, 0]]
    }, 
    {
      "op": "tanh", 
      "name": "deeparpredictionnetwork0_lstm1_t8_c", 
      "inputs": [[857, 2, 0]]
    }, 
    {
      "op": "elemwise_mul", 
      "name": "deeparpredictionnetwork0_lstm1_t8_mul1", 
      "inputs": [[864, 0, 0], [865, 0, 0]]
    }, 
    {
      "op": "elemwise_add", 
      "name": "deeparpredictionnetwork0_lstm1_t8_state", 
      "inputs": [[863, 0, 0], [866, 0, 0]]
    }, 
    {
      "op": "Activation", 
      "name": "deeparpredictionnetwork0_lstm1_t8_activation0", 
      "attrs": {"act_type": "tanh"}, 
      "inputs": [[867, 0, 0]]
    }, 
    {
      "op": "elemwise_mul", 
      "name": "deeparpredictionnetwork0_lstm1_t8_out", 
      "inputs": [[858, 0, 0], [868, 0, 0]]
    }, 
    {
      "op": "ones_like", 
      "name": "deeparpredictionnetwork0_deeparpredictionnetwork0_deeparpredictionnetwork0_lstm1_residualcellzoneoutones_like0", 
      "inputs": [[869, 0, 0]]
    }, 
    {
      "op": "Dropout", 
      "name": "deeparpredictionnetwork0_deeparpredictionnetwork0_deeparpredictionnetwork0_lstm1_residualcellzoneoutdropout0", 
      "attrs": {"p": "0.1"}, 
      "inputs": [[870, 0, 0]]
    }, 
    {
      "op": "where", 
      "name": "deeparpredictionnetwork0_deeparpredictionnetwork0_deeparpredictionnetwork0_lstm1_residualcellzoneoutwhere0", 
      "inputs": [[871, 0, 0], [869, 0, 0], [854, 0, 0]]
    }, 
    {
      "op": "FullyConnected", 
      "name": "deeparpredictionnetwork0_lstm1_t9_h2h", 
      "attrs": {"num_hidden": "160"}, 
      "inputs": [[872, 0, 0], [708, 0, 0], [709, 0, 0]]
    }, 
    {
      "op": "elemwise_add", 
      "name": "deeparpredictionnetwork0_lstm1_t9_plus0", 
      "inputs": [[694, 0, 0], [873, 0, 0]]
    }, 
    {
      "op": "SliceChannel", 
      "name": "deeparpredictionnetwork0_lstm1_t9_slice", 
      "attrs": {"num_outputs": "4"}, 
      "inputs": [[874, 0, 0]]
    }, 
    {
      "op": "sigmoid", 
      "name": "deeparpredictionnetwork0_lstm1_t9_o", 
      "inputs": [[875, 3, 0]]
    }, 
    {
      "op": "sigmoid", 
      "name": "deeparpredictionnetwork0_lstm1_t9_f", 
      "inputs": [[875, 1, 0]]
    }, 
    {
      "op": "ones_like", 
      "name": "deeparpredictionnetwork0_deeparpredictionnetwork0_deeparpredictionnetwork0_lstm1_residualcellzoneoutones_like1", 
      "inputs": [[867, 0, 0]]
    }, 
    {
      "op": "Dropout", 
      "name": "deeparpredictionnetwork0_deeparpredictionnetwork0_deeparpredictionnetwork0_lstm1_residualcellzoneoutdropout1", 
      "attrs": {"p": "0.1"}, 
      "inputs": [[878, 0, 0]]
    }, 
    {
      "op": "where", 
      "name": "deeparpredictionnetwork0_deeparpredictionnetwork0_deeparpredictionnetwork0_lstm1_residualcellzoneoutwhere1", 
      "inputs": [[879, 0, 0], [867, 0, 0], [862, 0, 0]]
    }, 
    {
      "op": "elemwise_mul", 
      "name": "deeparpredictionnetwork0_lstm1_t9_mul0", 
      "inputs": [[877, 0, 0], [880, 0, 0]]
    }, 
    {
      "op": "sigmoid", 
      "name": "deeparpredictionnetwork0_lstm1_t9_i", 
      "inputs": [[875, 0, 0]]
    }, 
    {
      "op": "tanh", 
      "name": "deeparpredictionnetwork0_lstm1_t9_c", 
      "inputs": [[875, 2, 0]]
    }, 
    {
      "op": "elemwise_mul", 
      "name": "deeparpredictionnetwork0_lstm1_t9_mul1", 
      "inputs": [[882, 0, 0], [883, 0, 0]]
    }, 
    {
      "op": "elemwise_add", 
      "name": "deeparpredictionnetwork0_lstm1_t9_state", 
      "inputs": [[881, 0, 0], [884, 0, 0]]
    }, 
    {
      "op": "Activation", 
…
      "name": "deeparpredictionnetwork0_deeparpredictionnetwork0_lstm0_zoneoutones_like0", 
      "inputs": [[3582, 0, 0]]
    }, 
    {
      "op": "Dropout", 
      "name": "deeparpredictionnetwork0_deeparpredictionnetwork0_lstm0_zoneoutdropout0", 
      "attrs": {"p": "0.1"}, 
      "inputs": [[3656, 0, 0]]
    }, 
    {
      "op": "where", 
      "name": "deeparpredictionnetwork0_deeparpredictionnetwork0_lstm0_zoneoutwhere0", 
      "inputs": [[3657, 0, 0], [3582, 0, 0], [3567, 0, 0]]
    }, 
    {
      "op": "FullyConnected", 
      "name": "deeparpredictionnetwork0_lstm0_t0_h2h", 
      "attrs": {"num_hidden": "160"}, 
      "inputs": [[3658, 0, 0], [149, 0, 0], [150, 0, 0]]
    }, 
    {
      "op": "elemwise_add", 
      "name": "deeparpredictionnetwork0_lstm0_t0_plus0", 
      "inputs": [[3655, 0, 0], [3659, 0, 0]]
    }, 
    {
      "op": "SliceChannel", 
      "name": "deeparpredictionnetwork0_lstm0_t0_slice", 
      "attrs": {"num_outputs": "4"}, 
      "inputs": [[3660, 0, 0]]
    }, 
    {
      "op": "sigmoid", 
      "name": "deeparpredictionnetwork0_lstm0_t0_o", 
      "inputs": [[3661, 3, 0]]
    }, 
    {
      "op": "sigmoid", 
      "name": "deeparpredictionnetwork0_lstm0_t0_f", 
      "inputs": [[3661, 1, 0]]
    }, 
    {
      "op": "ones_like", 
      "name": "deeparpredictionnetwork0_deeparpredictionnetwork0_lstm0_zoneoutones_like1", 
      "inputs": [[3580, 0, 0]]
    }, 
    {
      "op": "Dropout", 
      "name": "deeparpredictionnetwork0_deeparpredictionnetwork0_lstm0_zoneoutdropout1", 
      "attrs": {"p": "0.1"}, 
      "inputs": [[3664, 0, 0]]
    }, 
    {
      "op": "where", 
      "name": "deeparpredictionnetwork0_deeparpredictionnetwork0_lstm0_zoneoutwhere1", 
      "inputs": [[3665, 0, 0], [3580, 0, 0], [3575, 0, 0]]
    }, 
    {
      "op": "elemwise_mul", 
      "name": "deeparpredictionnetwork0_lstm0_t0_mul0", 
      "inputs": [[3663, 0, 0], [3666, 0, 0]]
    }, 
    {
      "op": "sigmoid", 
      "name": "deeparpredictionnetwork0_lstm0_t0_i", 
      "inputs": [[3661, 0, 0]]
    }, 
    {
      "op": "tanh", 
      "name": "deeparpredictionnetwork0_lstm0_t0_c", 
      "inputs": [[3661, 2, 0]]
    }, 
    {
      "op": "elemwise_mul", 
      "name": "deeparpredictionnetwork0_lstm0_t0_mul1", 
      "inputs": [[3668, 0, 0], [3669, 0, 0]]
    }, 
    {
      "op": "elemwise_add", 
      "name": "deeparpredictionnetwork0_lstm0_t0_state", 
      "inputs": [[3667, 0, 0], [3670, 0, 0]]
    }, 
    {
      "op": "Activation", 
      "name": "deeparpredictionnetwork0_lstm0_t0_activation0", 
      "attrs": {"act_type": "tanh"}, 
      "inputs": [[3671, 0, 0]]
    }, 
    {
      "op": "elemwise_mul", 
      "name": "deeparpredictionnetwork0_lstm0_t0_out", 
      "inputs": [[3662, 0, 0], [3672, 0, 0]]
    }, 
    {
      "op": "FullyConnected", 
      "name": "deeparpredictionnetwork0_lstm1_t0_i2h", 
      "attrs": {"num_hidden": "160"}, 
      "inputs": [[3673, 0, 0], [673, 0, 0], [674, 0, 0]]
    }, 
    {
      "op": "ones_like", 
      "name": "deeparpredictionnetwork0_deeparpredictionnetwork0_deeparpredictionnetwork0_lstm1_residualcellzoneoutones_like0", 
      "inputs": [[3601, 0, 0]]
    }, 
    {
      "op": "Dropout", 
      "name": "deeparpredictionnetwork0_deeparpredictionnetwork0_deeparpredictionnetwork0_lstm1_residualcellzoneoutdropout0", 
      "attrs": {"p": "0.1"}, 
      "inputs": [[3675, 0, 0]]
    }, 
    {
      "op": "where", 
      "name": "deeparpredictionnetwork0_deeparpredictionnetwork0_deeparpredictionnetwork0_lstm1_residualcellzoneoutwhere0", 
      "inputs": [[3676, 0, 0], [3601, 0, 0], [3586, 0, 0]]
    }, 
    {
      "op": "FullyConnected", 
      "name": "deeparpredictionnetwork0_lstm1_t0_h2h", 
      "attrs": {"num_hidden": "160"}, 
      "inputs": [[3677, 0, 0], [708, 0, 0], [709, 0, 0]]
    }, 
    {
      "op": "elemwise_add", 
      "name": "deeparpredictionnetwork0_lstm1_t0_plus0", 
      "inputs": [[3674, 0, 0], [3678, 0, 0]]
    }, 
    {
      "op": "SliceChannel", 
      "name": "deeparpredictionnetwork0_lstm1_t0_slice", 
      "attrs": {"num_outputs": "4"}, 
      "inputs": [[3679, 0, 0]]
    }, 
    {
      "op": "sigmoid", 
      "name": "deeparpredictionnetwork0_lstm1_t0_o", 
      "inputs": [[3680, 3, 0]]
    }, 
    {
      "op": "sigmoid", 
      "name": "deeparpredictionnetwork0_lstm1_t0_f", 
      "inputs": [[3680, 1, 0]]
    }, 
    {
      "op": "ones_like", 
      "name": "deeparpredictionnetwork0_deeparpredictionnetwork0_deeparpredictionnetwork0_lstm1_residualcellzoneoutones_like1", 
      "inputs": [[3599, 0, 0]]
    }, 
    {
      "op": "Dropout", 
      "name": "deeparpredictionnetwork0_deeparpredictionnetwork0_deeparpredictionnetwork0_lstm1_residualcellzoneoutdropout1", 
      "attrs": {"p": "0.1"}, 
      "inputs": [[3683, 0, 0]]
    }, 
    {
      "op": "where", 
      "name": "deeparpredictionnetwork0_deeparpredictionnetwork0_deeparpredictionnetwork0_lstm1_residualcellzoneoutwhere1", 
      "inputs": [[3684, 0, 0], [3599, 0, 0], [3594, 0, 0]]
    }, 
    {
      "op": "elemwise_mul", 
      "name": "deeparpredictionnetwork0_lstm1_t0_mul0", 
      "inputs": [[3682, 0, 0], [3685, 0, 0]]
    }, 
    {
      "op": "sigmoid", 
      "name": "deeparpredictionnetwork0_lstm1_t0_i", 
      "inputs": [[3680, 0, 0]]
    }, 
    {
      "op": "tanh", 
      "name": "deeparpredictionnetwork0_lstm1_t0_c", 
      "inputs": [[3680, 2, 0]]
    }, 
    {
      "op": "elemwise_mul", 
      "name": "deeparpredictionnetwork0_lstm1_t0_mul1", 
      "inputs": [[3687, 0, 0], [3688, 0, 0]]
    }, 
    {
      "op": "elemwise_add", 
      "name": "deeparpredictionnetwork0_lstm1_t0_state", 
      "inputs": [[3686, 0, 0], [3689, 0, 0]]
    }, 
    {
      "op": "Activation", 
      "name": "deeparpredictionnetwork0_lstm1_t0_activation0", 
      "attrs": {"act_type": "tanh"}, 
      "inputs": [[3690, 0, 0]]
    }, 
    {
      "op": "elemwise_mul", 
      "name": "deeparpredictionnetwork0_lstm1_t0_out", 
      "inputs": [[3681, 0, 0], [3691, 0, 0]]
    }, 
    {
      "op": "elemwise_add", 
      "name": "deeparpredictionnetwork0_deeparpredictionnetwork0_lstm1_residualcellt0_fwd", 
      "inputs": [[3692, 0, 0], [3673, 0, 0]]
    }, 
    {
      "op": "stack", 
      "name": "deeparpredictionnetwork0_stack57", 
      "attrs": {
        "axis": "1", 
        "num_args": "1"
      }, 
      "inputs": [[3693, 0, 0]]
    }, 
    {
      "op": "FullyConnected", 
      "name": "deeparpredictionnetwork0_None_distr_alpha_fwd", 
      "attrs": {
        "flatten": "False", 
        "no_bias": "False", 
        "num_hidden": "1"
      }, 
      "inputs": [[3694, 0, 0], [1234, 0, 0], [1235, 0, 0]]
    }, 
    {
      "op": "Activation", 
      "name": "deeparpredictionnetwork0_hybridlambda0_activation1", 
      "attrs": {"act_type": "softrelu"}, 
      "inputs": [[3695, 0, 0]]
    }, 
    {
      "op": "_maximum_scalar", 
      "name": "deeparpredictionnetwork0_hybridlambda0__maximumscalar1", 
      "attrs": {"scalar": "1.1920929e-07"}, 
      "inputs": [[3696, 0, 0]]
    }, 
    {
      "op": "squeeze", 
      "name": "deeparpredictionnetwork0_hybridlambda0_squeeze1", 
      "attrs": {"axis": "-1"}, 
      "inputs": [[3697, 0, 0]]
    }, 
    {
      "op": "_rdiv_scalar", 
      "name": "deeparpredictionnetwork0__rdivscalar27", 
      "attrs": {"scalar": "1.0"}, 
      "inputs": [[3698, 0, 0]]
    }, 
    {
      "op": "FullyConnected", 
      "name": "deeparpredictionnetwork0_None_distr_mu_fwd", 
      "attrs": {
        "flatten": "False", 
        "no_bias": "False", 
        "num_hidden": "1"
      }, 
      "inputs": [[3694, 0, 0], [1241, 0, 0], [1242, 0, 0]]
    }, 
    {
      "op": "Activation", 
      "name": "deeparpredictionnetwork0_hybridlambda0_activation0", 
      "attrs": {"act_type": "softrelu"}, 
      "inputs": [[3700, 0, 0]]
    }, 
    {
      "op": "_maximum_scalar", 
      "name": "deeparpredictionnetwork0_hybridlambda0__maximumscalar0", 
      "attrs": {"scalar": "1.1920929e-07"}, 
      "inputs": [[3701, 0, 0]]
    }, 
    {
      "op": "squeeze", 
      "name": "deeparpredictionnetwork0_hybridlambda0_squeeze0", 
      "attrs": {"axis": "-1"}, 
      "inputs": [[3702, 0, 0]]
    }, 
    {
      "op": "broadcast_mul", 
      "name": "deeparpredictionnetwork0_broadcast_mul27", 
      "inputs": [[3703, 0, 0], [53, 0, 0]]
    }, 
    {
      "op": "elemwise_mul", 
      "name": "deeparpredictionnetwork0__mul27", 
      "inputs": [[3698, 0, 0], [3704, 0, 0]]
    }, 
    {
      "op": "_sample_gamma", 
      "name": "deeparpredictionnetwork0__sample_gamma27", 
      "inputs": [[3699, 0, 0], [3705, 0, 0]]
    }, 
    {
      "op": "_sample_poisson", 
      "name": "deeparpredictionnetwork0__sample_poisson27", 
      "attrs": {"dtype": "float32"}, 
      "inputs": [[3706, 0, 0]]
    }, 
    {
      "op": "Concat", 
      "name": "deeparpredictionnetwork0_concat58", 
      "attrs": {
        "dim": "1", 
        "num_args": "28"
      }, 
      "inputs": [
        [1250, 0, 0], 
        [1341, 0, 0], 
        [1432, 0, 0], 
        [1523, 0, 0], 
        [1614, 0, 0], 
        [1705, 0, 0], 
        [1796, 0, 0], 
        [1887, 0, 0], 
        [1978, 0, 0], 
        [2069, 0, 0], 
        [2160, 0, 0], 
        [2251, 0, 0], 
        [2342, 0, 0], 
        [2433, 0, 0], 
        [2524, 0, 0], 
        [2615, 0, 0], 
        [2706, 0, 0], 
        [2797, 0, 0], 
        [2888, 0, 0], 
        [2979, 0, 0], 
        [3070, 0, 0], 
        [3161, 0, 0], 
        [3252, 0, 0], 
        [3343, 0, 0], 
        [3434, 0, 0], 
        [3525, 0, 0], 
        [3616, 0, 0], 
        [3707, 0, 0]
      ]
    }, 
    {
      "op": "Reshape", 
      "name": "deeparpredictionnetwork0_reshape29", 
      "attrs": {"shape": "(-1, 100, 28)"}, 
      "inputs": [[3708, 0, 0]]
    }
  ], 
  "arg_nodes": [
    0, 
    35, 
    57, 
    60, 
    62, 
    65, 
    72, 
    73, 
    109, 
    143, 
    149, 
    150, 
    673, 
    674, 
    708, 
    709, 
    1234, 
    1235, 
    1241, 
    1242
  ], 
  "node_row_ptr": [
    0, 
    1, 
    2, 
    3, 
    4, 
    5, 
    6, 
    7, 
    8, 
    9, 
    10, 
    11, 
    12, 
    13, 
    14, 
    15, 
    16, 
    17, 
    18, 
    19, 
    20, 
    21, 
    22, 
    23, 
    24, 
    25, 
    26, 
    27, 
    28, 
    29, 
    30, 
    31, 
    32, 
    33, 
    34, 
    35, 
    36, 
    37, 
    38, 
    39, 
    40, 
    41, 
    42, 
    43, 
    44, 
    45, 
    46, 
    47, 
    48, 
    49, 
    50, 
    51, 
    52, 
    53, 
    54, 
    55, 
    56, 
    57, 
    58, 
    59, 
    60, 
    61, 
    62, 
    63, 
    64, 
    65, 
    66, 
    67, 
    68, 
    69, 
    70, 
    71, 
    72, 
    73, 
    74, 
    75, 
    76, 
    77, 
    78, 
    79, 
    80, 
    81, 
    82, 
    83, 
    84, 
    85, 
    86, 
    87, 
    88, 
    89, 
    90, 
    91, 
    92, 
    93, 
    94, 
    95, 
    96, 
    97, 
    98, 
    99, 
    100, 
    101, 
    102, 
    103, 
    104, 
    105, 
    106, 
    107, 
    108, 
    109, 
    110, 
    111, 
    112, 
    113, 
    114, 
    142, 
    143, 
    144, 
    145, 
    146, 
    147, 
    148, 
    149, 
    150, 
    151, 
    152, 
    153, 
    154, 
    155, 
    156, 
    157, 
    158, 
    159, 
    160, 
    161, 
    162, 
    163, 
    164, 
    165, 
    166, 
    167, 
    168, 
    169, 
    170, 
    171, 
    172, 
    173, 
    174, 
    175, 
    176, 
    177, 
    178, 
    179, 
    180, 
    184, 
    185, 
    186, 
    187, 
    188, 
    189, 
    190, 
    191, 
    192, 
    193, 
    194, 
    195, 
    196, 
    197, 
    198, 
    200, 
    201, 
    202, 
    203, 
    207, 
    208, 
    209, 
    210, 
    212, 
    213, 
    214, 
    215, 
    216, 
    217, 
    218, 
    219, 
    220, 
    221, 
    223, 
    224, 
    225, 
    226, 
    230, 
    231, 
    232, 
    233, 
    235, 
    236, 
    237, 
    238, 
    239, 
    240, 
    241, 
    242, 
    243, 
    244, 
    246, 
    247, 
    248, 
    249, 
    253, 
    254, 
    255, 
    256, 
    258, 
    259, 
    260, 
    261, 
    262, 
    263, 
    264, 
    265, 
    266, 
    267, 
    269, 
    270, 
    271, 
    272, 
    276, 
    277, 
    278, 
    279, 
    281, 
    282, 
    283, 
    284, 
    285, 
    286, 
    287, 
    288, 
    289, 
    290, 
    292, 
    293, 
    294, 
    295, 
    299, 
    300, 
    301, 
    302, 
    304, 
    305, 
    306, 
    307, 
    308, 
    309, 
    310, 
    311, 
    312, 
    313, 
    315, 
    316, 
    317, 
    318, 
    322, 
    323, 
    324, 
    325, 
    327, 
    328, 
    329, 
    330, 
    331, 
    332, 
    333, 
    334, 
    335, 
    336, 
    338, 
    339, 
    340, 
    341, 
    345, 
    346, 
    347, 
    348, 
    350, 
    351, 
    352, 
    353, 
    354, 
    355, 
    356, 
    357, 
    358, 
    359, 
    361, 
    362, 
    363, 
    364, 
    368, 
    369, 
    370, 
    371, 
    373, 
    374, 
    375, 
    376, 
    377, 
    378, 
    379, 
    380, 
    381, 
    382, 
    384, 
    385, 
    386, 
    387, 
    391, 
    392, 
    393, 
    394, 
    396, 
    397, 
    398, 
    399, 
    400, 
    401, 
    402, 
    403, 
    404, 
    405, 
    407, 
    408, 
    409, 
    410, 
    414, 
    415, 
    416, 
    417, 
    419, 
    420, 
    421, 
    422, 
    423, 
    424, 
    425, 
    426, 
    427, 
    428, 
    430, 
    431, 
    432, 
    433, 
    437, 
    438, 
    439, 
    440, 
    442, 
    443, 
    444, 
    445, 
    446, 
    447, 
    448, 
    449, 
    450, 
    451, 
    453, 
    454, 
    455, 
    456, 
    460, 
    461, 
    462, 
    463, 
    465, 
    466, 
    467, 
    468, 
    469, 
    470, 
    471, 
    472, 
    473, 
    474, 
    476, 
    477, 
    478, 
    479, 
    483, 
    484, 
    485, 
    486, 
    488, 
    489, 
    490, 
    491, 
    492, 
    493, 
    494, 
    495, 
    496, 
    497, 
    499, 
    500, 
    501, 
    502, 
    506, 
    507, 
    508, 
    509, 
    511, 
    512, 
    513, 
    514, 
    515, 
    516, 
    517, 
    518, 
    519, 
    520, 
    522, 
    523, 
    524, 
    525, 
    529, 
    530, 
    531, 
    532, 
    534, 
    535, 
    536, 
    537, 
    538, 
    539, 
    540, 
    541, 
    542, 
    543, 
    545, 
    546, 
    547, 
    548, 
    552, 
    553, 
    554, 
    555, 
    557, 
    558, 
    559, 
    560, 
    561, 
    562, 
    563, 
    564, 
    565, 
    566, 
    568, 
    569, 
    570, 
    571, 
    575, 
    576, 
    577, 
    578, 
    580, 
    581, 
    582, 
    583, 
    584, 
    585, 
    586, 
    587, 
    588, 
    589, 
    591, 
    592, 
    593, 
    594, 
    598, 
    599, 
    600, 
    601, 
    603, 
    604, 
    605, 
    606, 
    607, 
    608, 
    609, 
    610, 
    611, 
    612, 
    614, 
    615, 
    616, 
    617, 
    621, 
    622, 
    623, 
    624, 
    626, 
    627, 
    628, 
    629, 
    630, 
    631, 
    632, 
    633, 
    634, 
    635, 
    637, 
    638, 
    639, 
    640, 
    644, 
    645, 
    646, 
    647, 
    649, 
    650, 
    651, 
    652, 
    653, 
    654, 
    655, 
    656, 
    657, 
    658, 
    660, 
    661, 
    662, 
    663, 
    667, 
    668, 
    669, 
    670, 
    672, 
    673, 
    674, 
    675, 
    676, 
    677, 
    678, 
    679, 
    680, 
    681, 
    683, 
    684, 
    685, 
    686, 
    690, 
    691, 
    692, 
    693, 
    695, 
    696, 
    697, 
    698, 
    699, 
    700, 
    701, 
    702, 
    703, 
    704, 
    706, 
    707, 
    708, 
    709, 
    713, 
    714, 
    715, 
    716, 
    718, 
    719, 
    720, 
    721, 
    722, 
    723, 
    724, 
    725, 
    726, 
    727, 
    729, 
    730, 
    731, 
    732, 
    736, 
    737, 
    738, 
    739, 
    741, 
    742, 
    743, 
    744, 
    745, 
    746, 
    747, 
    748, 
    749, 
    750, 
    752, 
    753, 
    754, 
    755, 
    759, 
    760, 
    761, 
    762, 
    764, 
    765, 
    766, 
    767, 
    768, 
    769, 
    770, 
    771, 
    772, 
    773, 
    775, 
    776, 
    777, 
    778, 
    782, 
    783, 
    784, 
    785, 
    787, 
    788, 
    789, 
    790, 
    791, 
    792, 
    793, 
    794, 
    795, 
    796, 
    798, 
    799, 
    800, 
    801, 
    805, 
    806, 
    807, 
    808, 
    810, 
    811, 
    812, 
    813, 
    814, 
    815, 
    816, 
    817, 
    818, 
    819, 
    821, 
    822, 
    823, 
    824, 
    825, 
    829, 
    830, 
    831, 
    832, 
    834, 
    835, 
    836, 
    837, 
    838, 
    839, 
    840, 
    841, 
    842, 
    843, 
    844, 
    845, 
    846, 
    847, 
    848, 
    849, 
    850, 
    851, 
    852, 
    853, 
    854, 
    855, 
    856, 
    857, 
    858, 
    859, 
    860, 
    861, 
    862, 
    863, 
    864, 
    865, 
    866, 
    867, 
    868, 
    869, 
    870, 
    871, 
    872, 
    873, 
    874, 
    875, 
    876, 
    877, 
    878, 
    879, 
    880, 
    881, 
    882, 
    886, 
    887, 
    888, 
    889, 
    890, 
    891, 
    892, 
    893, 
    894, 
    895, 
    896, 
    897, 
    898, 
    899, 
    900, 
    902, 
    903, 
    904, 
    905, 
    909, 
    910, 
    911, 
    912, 
    914, 
    915, 
    916, 
    917, 
    918, 
    919, 
    920, 
    921, 
    922, 
    923, 
    925, 
    926, 
    927, 
    928, 
    932, 
    933, 
    934, 
    935, 
    937, 
    938, 
    939, 
    940, 
    941, 
    942, 
    943, 
    944, 
    945, 
    946, 
    948, 
    949, 
    950, 
    951, 
    955, 
    956, 
    957, 
    958, 
    960, 
    961, 
    962, 
    963, 
    964, 
    965, 
    966, 
    967, 
    968, 
    969, 
    971, 
    972, 
    973, 
    974, 
    978, 
    979, 
    980, 
    981, 
    983, 
    984, 
    985, 
    986, 
    987, 
    988, 
    989, 
    990, 
    991, 
    992, 
    994, 
    995, 
    996, 
    997, 
    1001, 
    1002, 
    1003, 
    1004, 
    1006, 
    1007, 
    1008, 
    1009, 
    1010, 
    1011, 
    1012, 
    1013, 
    1014, 
    1015, 
    1017, 
    1018, 
    1019, 
    1020, 
    1024, 
    1025, 
    1026, 
    1027, 
    1029, 
    1030, 
    1031, 
    1032, 
    1033, 
    1034, 
    1035, 
    1036, 
    1037, 
    1038, 
    1040, 
    1041, 
    1042, 
    1043, 
    1047, 
    1048, 
    1049, 
    1050, 
    1052, 
    1053, 
    1054, 
    1055, 
    1056, 
    1057, 
    1058, 
    1059, 
    1060, 
    1061, 
    1063, 
    1064, 
    1065, 
    1066, 
    1070, 
    1071, 
    1072, 
    1073, 
    1075, 
    1076, 
    1077, 
    1078, 
    1079, 
    1080, 
    1081, 
    1082, 
    1083, 
    1084, 
    1086, 
    1087, 
    1088, 
    1089, 
    1093, 
    1094, 
    1095, 
    1096, 
    1098, 
    1099, 
    1100, 
    1101, 
    1102, 
    1103, 
    1104, 
    1105, 
    1106, 
    1107, 
    1109, 
    1110, 
    1111, 
    1112, 
    1116, 
    1117, 
    1118, 
    1119, 
    1121, 
    1122, 
    1123, 
    1124, 
    1125, 
    1126, 
    1127, 
    1128, 
    1129, 
    1130, 
    1132, 
    1133, 
    1134, 
    1135, 
    1139, 
    1140, 
    1141, 
    1142, 
    1144, 
    1145, 
    1146, 
    1147, 
    1148, 
    1149, 
    1150, 
    1151, 
    1152, 
    1153, 
    1155, 
    1156, 
    1157, 
    1158, 
    1162, 
    1163, 
    1164, 
    1165, 
    1167, 
    1168, 
    1169, 
    1170, 
    1171, 
    1172, 
    1173, 
    1174, 
    1175, 
    1176, 
    1178, 
    1179, 
    1180, 
    1181, 
    1185, 
    1186, 
    1187, 
    1188, 
    1190, 
    1191, 
    1192, 
    1193, 
    1194, 
    1195, 
    1196, 
    1197, 
    1198, 
    1199, 
    1201, 
    1202, 
    1203, 
    1204, 
    1208, 
    1209, 
    1210, 
    1211, 
    1213, 
    1214, 
    1215, 
    1216, 
    1217, 
    1218, 
    1219, 
    1220, 
    1221, 
    1222, 
    1224, 
    1225, 
    1226, 
    1227, 
    1231, 
    1232, 
    1233, 
    1234, 
    1236, 
    1237, 
    1238, 
    1239, 
    1240, 
    1241, 
    1242, 
    1243, 
    1244, 
    1245, 
    1247, 
    1248, 
    1249, 
    1250, 
    1254, 
    1255, 
    1256, 
    1257, 
    1259, 
    1260, 
    1261, 
    1262, 
    1263, 
    1264, 
    1265, 
    1266, 
    1267, 
    1268, 
    1270, 
    1271, 
    1272, 
    1273, 
    1277, 
    1278, 
    1279, 
    1280, 
    1282, 
    1283, 
    1284, 
    1285, 
    1286, 
    1287, 
    1288, 
    1289, 
    1290, 
    1291, 
    1293, 
    1294, 
    1295, 
    1296, 
    1300, 
    1301, 
    1302, 
    1303, 
    1305, 
    1306, 
    1307, 
    1308, 
    1309, 
    1310, 
    1311, 
    1312, 
    1313, 
    1314, 
    1316, 
    1317, 
    1318, 
    1319, 
    1323, 
    1324, 
    1325, 
    1326, 
    1328, 
    1329, 
    1330, 
    1331, 
    1332, 
    1333, 
    1334, 
    1335, 
    1336, 
    1337, 
    1339, 
    1340, 
    1341, 
    1342, 
    1346, 
    1347, 
    1348, 
    1349, 
    1351, 
    1352, 
    1353, 
    1354, 
    1355, 
    1356, 
    1357, 
    1358, 
    1359, 
    1360, 
    1362, 
    1363, 
    1364, 
    1365, 
    1369, 
    1370, 
    1371, 
    1372, 
    1374, 
    1375, 
    1376, 
    1377, 
    1378, 
    1379, 
    1380, 
    1381, 
    1382, 
    1383, 
    1385, 
    1386, 
    1387, 
    1388, 
    1392, 
    1393, 
    1394, 
    1395, 
    1397, 
    1398, 
    1399, 
    1400, 
    1401, 
    1402, 
    1403, 
    1404, 
    1405, 
    1406, 
    1408, 
    1409, 
    1410, 
    1411, 
    1415, 
    1416, 
    1417, 
    1418, 
    1420, 
    1421, 
    1422, 
    1423, 
    1424, 
    1425, 
    1426, 
    1427, 
    1428, 
    1429, 
    1431, 
    1432, 
    1433, 
    1434, 
    1438, 
    1439, 
    1440, 
    1441, 
    1443, 
    1444, 
    1445, 
    1446, 
    1447, 
    1448, 
    1449, 
    1450, 
    1451, 
    1452, 
    1454, 
    1455, 
    1456, 
    1457, 
    1461, 
    1462, 
    1463, 
    1464, 
    1466, 
    1467, 
    1468, 
    1469, 
    1470, 
    1471, 
    1472, 
    1473, 
    1474, 
    1475, 
    1477, 
    1478, 
    1479, 
    1480, 
    1484, 
    1485, 
    1486, 
    1487, 
    1489, 
    1490, 
    1491, 
    1492, 
    1493, 
    1494, 
    1495, 
    1496, 
    1497, 
    1498, 
    1500, 
    1501, 
    1502, 
    1503, 
    1507, 
    1508, 
    1509, 
    1510, 
    1512, 
    1513, 
    1514, 
    1515, 
    1516, 
    1517, 
    1518, 
    1519, 
    1520, 
    1521, 
    1523, 
    1524, 
    1525, 
    1526, 
    1527, 
    1531, 
    1532, 
    1533, 
    1534, 
    1536, 
    1537, 
    1538, 
    1539, 
    1540, 
    1541, 
    1542, 
    1543, 
    1544, 
    1545, 
    1546, 
    1547, 
    1548, 
    1549, 
    1550, 
    1551, 
    1552, 
    1553, 
    1554, 
    1555, 
    1556, 
    1557, 
    1558, 
    1559, 
    1560, 
    1561, 
    1562, 
    1563, 
    1564, 
    1565, 
    1566, 
    1567, 
    1568, 
    1569, 
    1570, 
    1571, 
    1572, 
    1573, 
    1574, 
    1575, 
    1576, 
    1577, 
    1578, 
    1579, 
    1580, 
    1581, 
    1582, 
    1583, 
    1584, 
    1585, 
    1586, 
    1587, 
    1588, 
    1589, 
    1590, 
    1591, 
    1592, 
    1593, 
    1594, 
    1595, 
    1596, 
    1597, 
    1598, 
    1599, 
    1600, 
    1601, 
    1602, 
    1603, 
    1604, 
    1606, 
    1607, 
    1608, 
    1609, 
    1613, 
    1614, 
    1615, 
    1616, 
    1618, 
    1619, 
    1620, 
    1621, 
    1622, 
    1623, 
    1624, 
    1625, 
    1626, 
    1627, 
    1628, 
    1630, 
    1631, 
    1632, 
    1633, 
    1637, 
    1638, 
    1639, 
    1640, 
    1642, 
    1643, 
    1644, 
    1645, 
    1646, 
    1647, 
    1648, 
    1649, 
    1650, 
    1651, 
    1652, 
    1653, 
    1654, 
    1655, 
    1656, 
    1657, 
    1658, 
    1659, 
    1660, 
    1661, 
    1662, 
    1663, 
    1664, 
    1665, 
    1666, 
    1667, 
    1668, 
    1669, 
    1670, 
    1671, 
    1672, 
    1673, 
    1674, 
    1675, 
    1676, 
    1677, 
    1678, 
    1679, 
    1680, 
    1681, 
    1682, 
    1683, 
    1684, 
    1685, 
    1686, 
    1687, 
    1688, 
    1689, 
    1690, 
    1691, 
    1692, 
    1693, 
    1694, 
    1695, 
    1696, 
    1697, 
    1698, 
    1699, 
    1700, 
    1701, 
    1702, 
    1703, 
    1704, 
    1705, 
    1707, 
    1708, 
    1709, 
    1710, 
    1714, 
    1715, 
    1716, 
    1717, 
    1719, 
    1720, 
    1721, 
    1722, 
    1723, 
    1724, 
    1725, 
    1726, 
    1727, 
    1728, 
    1729, 
    1731, 
    1732, 
    1733, 
    1734, 
    1738, 
    1739, 
    1740, 
    1741, 
    1743, 
    1744, 
    1745, 
    1746, 
    1747, 
    1748, 
    1749, 
    1750, 
    1751, 
    1752, 
    1753, 
    1754, 
    1755, 
    1756, 
    1757, 
    1758, 
    1759, 
    1760, 
    1761, 
    1762, 
    1763, 
    1764, 
    1765, 
    1766, 
    1767, 
    1768, 
    1769, 
    1770, 
    1771, 
    1772, 
    1773, 
    1774, 
    1775, 
    1776, 
    1777, 
    1778, 
    1779, 
    1780, 
    1781, 
    1782, 
    1783, 
    1784, 
    1785, 
    1786, 
    1787, 
    1788, 
    1789, 
    1790, 
    1791, 
    1792, 
    1793, 
    1794, 
    1795, 
    1796, 
    1797, 
    1798, 
    1799, 
    1800, 
    1801, 
    1802, 
    1803, 
    1804, 
    1805, 
    1806, 
    1808, 
    1809, 
    1810, 
    1811, 
    1815, 
    1816, 
    1817, 
    1818, 
    1820, 
    1821, 
    1822, 
    1823, 
    1824, 
    1825, 
    1826, 
    1827, 
    1828, 
    1829, 
    1830, 
    1832, 
    1833, 
    1834, 
    1835, 
    1839, 
    1840, 
    1841, 
    1842, 
    1844, 
    1845, 
    1846, 
    1847, 
    1848, 
    1849, 
    1850, 
    1851, 
    1852, 
    1853, 
    1854, 
    1855, 
    1856, 
    1857, 
    1858, 
    1859, 
    1860, 
    1861, 
    1862, 
    1863, 
    1864, 
    1865, 
    1866, 
    1867, 
    1868, 
    1869, 
    1870, 
    1871, 
    1872, 
    1873, 
    1874, 
    1875, 
    1876, 
    1877, 
    1878, 
    1879, 
    1880, 
    1881, 
    1882, 
    1883, 
    1884, 
    1885, 
    1886, 
    1887, 
    1888, 
    1889, 
    1890, 
    1891, 
    1892, 
    1893, 
    1894, 
    1895, 
    1896, 
    1897, 
    1898, 
    1899, 
    1900, 
    1901, 
    1902, 
    1903, 
    1904, 
    1905, 
    1906, 
    1907, 
    1909, 
    1910, 
    1911, 
    1912, 
    1916, 
    1917, 
    1918, 
    1919, 
    1921, 
    1922, 
    1923, 
    1924, 
    1925, 
    1926, 
    1927, 
    1928, 
    1929, 
    1930, 
    1931, 
    1933, 
    1934, 
    1935, 
    1936, 
    1940, 
    1941, 
    1942, 
    1943, 
    1945, 
    1946, 
    1947, 
    1948, 
    1949, 
    1950, 
    1951, 
    1952, 
    1953, 
    1954, 
    1955, 
    1956, 
    1957, 
    1958, 
    1959, 
    1960, 
    1961, 
    1962, 
    1963, 
    1964, 
    1965, 
    1966, 
    1967, 
    1968, 
    1969, 
    1970, 
    1971, 
    1972, 
    1973, 
    1974, 
    1975, 
    1976, 
    1977, 
    1978, 
    1979, 
    1980, 
    1981, 
    1982, 
    1983, 
    1984, 
    1985, 
    1986, 
    1987, 
    1988, 
    1989, 
    1990, 
    1991, 
    1992, 
    1993, 
    1994, 
    1995, 
    1996, 
    1997, 
    1998, 
    1999, 
    2000, 
    2001, 
    2002, 
    2003, 
    2004, 
    2005, 
    2006, 
    2007, 
    2008, 
    2010, 
    2011, 
    2012, 
    2013, 
    2017, 
    2018, 
    2019, 
    2020, 
    2022, 
    2023, 
    2024, 
    2025, 
    2026, 
    2027, 
    2028, 
    2029, 
    2030, 
    2031, 
    2032, 
    2034, 
    2035, 
    2036, 
    2037, 
    2041, 
    2042, 
    2043, 
    2044, 
    2046, 
    2047, 
    2048, 
    2049, 
    2050, 
    2051, 
    2052, 
    2053, 
    2054, 
    2055, 
    2056, 
    2057, 
    2058, 
    2059, 
    2060, 
    2061, 
    2062, 
    2063, 
    2064, 
    2065, 
    2066, 
    2067, 
    2068, 
    2069, 
    2070, 
    2071, 
    2072, 
    2073, 
    2074, 
    2075, 
    2076, 
    2077, 
    2078, 
    2079, 
    2080, 
    2081, 
    2082, 
    2083, 
    2084, 
    2085, 
    2086, 
    2087, 
    2088, 
    2089, 
    2090, 
    2091, 
    2092, 
    2093, 
    2094, 
    2095, 
    2096, 
    2097, 
    2098, 
    2099, 
    2100, 
    2101, 
    2102, 
    2103, 
    2104, 
    2105, 
    2106, 
    2107, 
    2108, 
    2109, 
    2111, 
    2112, 
    2113, 
    2114, 
    2118, 
    2119, 
    2120, 
    2121, 
    2123, 
    2124, 
    2125, 
    2126, 
    2127, 
    2128, 
    2129, 
    2130, 
    2131, 
    2132, 
    2133, 
    2135, 
    2136, 
    2137, 
    2138, 
    2142, 
    2143, 
    2144, 
    2145, 
    2147, 
    2148, 
    2149, 
    2150, 
    2151, 
    2152, 
    2153, 
    2154, 
    2155, 
    2156, 
    2157, 
    2158, 
    2159, 
    2160, 
    2161, 
    2162, 
    2163, 
    2164, 
    2165, 
    2166, 
    2167, 
    2168, 
    2169, 
    2170, 
    2171, 
    2172, 
    2173, 
    2174, 
    2175, 
    2176, 
    2177, 
    2178, 
    2179, 
    2180, 
    2181, 
    2182, 
    2183, 
    2184, 
    2185, 
    2186, 
    2187, 
    2188, 
    2189, 
    2190, 
    2191, 
    2192, 
    2193, 
    2194, 
    2195, 
    2196, 
    2197, 
    2198, 
    2199, 
    2200, 
    2201, 
    2202, 
    2203, 
    2204, 
    2205, 
    2206, 
    2207, 
    2208, 
    2209, 
    2210, 
    2212, 
    2213, 
    2214, 
    2215, 
    2219, 
    2220, 
    2221, 
    2222, 
    2224, 
    2225, 
    2226, 
    2227, 
    2228, 
    2229, 
    2230, 
    2231, 
    2232, 
    2233, 
    2234, 
    2236, 
    2237, 
    2238, 
    2239, 
    2243, 
    2244, 
    2245, 
    2246, 
    2248, 
    2249, 
    2250, 
    2251, 
    2252, 
    2253, 
    2254, 
    2255, 
    2256, 
    2257, 
    2258, 
    2259, 
    2260, 
    2261, 
    2262, 
    2263, 
    2264, 
    2265, 
    2266, 
    2267, 
    2268, 
    2269, 
    2270, 
    2271, 
    2272, 
    2273, 
    2274, 
    2275, 
    2276, 
    2277, 
    2278, 
    2279, 
    2280, 
    2281, 
    2282, 
    2283, 
    2284, 
    2285, 
    2286, 
    2287, 
    2288, 
    2289, 
    2290, 
    2291, 
    2292, 
    2293, 
    2294, 
    2295, 
    2296, 
    2297, 
    2298, 
    2299, 
    2300, 
    2301, 
    2302, 
    2303, 
    2304, 
    2305, 
    2306, 
    2307, 
    2308, 
    2309, 
    2310, 
    2311, 
    2313, 
    2314, 
    2315, 
    2316, 
    2320, 
    2321, 
    2322, 
    2323, 
    2325, 
    2326, 
    2327, 
    2328, 
    2329, 
    2330, 
    2331, 
    2332, 
    2333, 
    2334, 
    2335, 
    2337, 
    2338, 
    2339, 
    2340, 
    2344, 
    2345, 
    2346, 
    2347, 
    2349, 
    2350, 
    2351, 
    2352, 
    2353, 
    2354, 
    2355, 
    2356, 
    2357, 
    2358, 
    2359, 
    2360, 
    2361, 
    2362, 
    2363, 
    2364, 
    2365, 
    2366, 
    2367, 
    2368, 
    2369, 
    2370, 
    2371, 
    2372, 
    2373, 
    2374, 
    2375, 
    2376, 
    2377, 
    2378, 
    2379, 
    2380, 
    2381, 
    2382, 
    2383, 
    2384, 
    2385, 
    2386, 
    2387, 
    2388, 
    2389, 
    2390, 
    2391, 
    2392, 
    2393, 
    2394, 
    2395, 
    2396, 
    2397, 
    2398, 
    2399, 
    2400, 
    2401, 
    2402, 
    2403, 
    2404, 
    2405, 
    2406, 
    2407, 
    2408, 
    2409, 
    2410, 
    2411, 
    2412, 
    2414, 
    2415, 
    2416, 
    2417, 
    2421, 
    2422, 
    2423, 
    2424, 
    2426, 
    2427, 
    2428, 
    2429, 
    2430, 
    2431, 
    2432, 
    2433, 
    2434, 
    2435, 
    2436, 
    2438, 
    2439, 
    2440, 
    2441, 
    2445, 
    2446, 
    2447, 
    2448, 
    2450, 
    2451, 
    2452, 
    2453, 
    2454, 
    2455, 
    2456, 
    2457, 
    2458, 
    2459, 
    2460, 
    2461, 
    2462, 
    2463, 
    2464, 
    2465, 
    2466, 
    2467, 
    2468, 
    2469, 
    2470, 
    2471, 
    2472, 
    2473, 
    2474, 
    2475, 
    2476, 
    2477, 
    2478, 
    2479, 
    2480, 
    2481, 
    2482, 
    2483, 
    2484, 
    2485, 
    2486, 
    2487, 
    2488, 
    2489, 
    2490, 
    2491, 
    2492, 
    2493, 
    2494, 
    2495, 
    2496, 
    2497, 
    2498, 
    2499, 
    2500, 
    2501, 
    2502, 
    2503, 
    2504, 
    2505, 
    2506, 
    2507, 
    2508, 
    2509, 
    2510, 
    2511, 
    2512, 
    2513, 
    2515, 
    2516, 
    2517, 
    2518, 
    2522, 
    2523, 
    2524, 
    2525, 
    2527, 
    2528, 
    2529, 
    2530, 
    2531, 
    2532, 
    2533, 
    2534, 
    2535, 
    2536, 
    2537, 
    2539, 
    2540, 
    2541, 
    2542, 
    2546, 
    2547, 
    2548, 
    2549, 
    2551, 
    2552, 
    2553, 
    2554, 
    2555, 
    2556, 
    2557, 
    2558, 
    2559, 
    2560, 
    2561, 
    2562, 
    2563, 
    2564, 
    2565, 
    2566, 
    2567, 
    2568, 
    2569, 
    2570, 
    2571, 
    2572, 
    2573, 
    2574, 
    2575, 
    2576, 
    2577, 
    2578, 
    2579, 
    2580, 
    2581, 
    2582, 
    2583, 
    2584, 
    2585, 
    2586, 
    2587, 
    2588, 
    2589, 
    2590, 
    2591, 
    2592, 
    2593, 
    2594, 
    2595, 
    2596, 
    2597, 
    2598, 
    2599, 
    2600, 
    2601, 
    2602, 
    2603, 
    2604, 
    2605, 
    2606, 
    2607, 
    2608, 
    2609, 
    2610, 
    2611, 
    2612, 
    2613, 
    2614, 
    2616, 
    2617, 
    2618, 
    2619, 
    2623, 
    2624, 
    2625, 
    2626, 
    2628, 
    2629, 
    2630, 
    2631, 
    2632, 
    2633, 
    2634, 
    2635, 
    2636, 
    2637, 
    2638, 
    2640, 
    2641, 
    2642, 
    2643, 
    2647, 
    2648, 
    2649, 
    2650, 
    2652, 
    2653, 
    2654, 
    2655, 
    2656, 
    2657, 
    2658, 
    2659, 
    2660, 
    2661, 
    2662, 
    2663, 
    2664, 
    2665, 
    2666, 
    2667, 
    2668, 
    2669, 
    2670, 
    2671, 
    2672, 
    2673, 
    2674, 
    2675, 
    2676, 
    2677, 
    2678, 
    2679, 
    2680, 
    2681, 
    2682, 
    2683, 
    2684, 
    2685, 
    2686, 
    2687, 
    2688, 
    2689, 
    2690, 
    2691, 
    2692, 
    2693, 
    2694, 
    2695, 
    2696, 
    2697, 
    2698, 
    2699, 
    2700, 
    2701, 
    2702, 
    2703, 
    2704, 
    2705, 
    2706, 
    2707, 
    2708, 
    2709, 
    2710, 
    2711, 
    2712, 
    2713, 
    2714, 
    2715, 
    2717, 
    2718, 
    2719, 
    2720, 
    2724, 
    2725, 
    2726, 
    2727, 
    2729, 
    2730, 
    2731, 
    2732, 
    2733, 
    2734, 
    2735, 
    2736, 
    2737, 
    2738, 
    2739, 
    2741, 
    2742, 
    2743, 
    2744, 
    2748, 
    2749, 
    2750, 
    2751, 
    2753, 
    2754, 
    2755, 
    2756, 
    2757, 
    2758, 
    2759, 
    2760, 
    2761, 
    2762, 
    2763, 
    2764, 
    2765, 
    2766, 
    2767, 
    2768, 
    2769, 
    2770, 
    2771, 
    2772, 
    2773, 
    2774, 
    2775, 
    2776, 
    2777, 
    2778, 
    2779, 
    2780, 
    2781, 
    2782, 
    2783, 
    2784, 
    2785, 
    2786, 
    2787, 
    2788, 
    2789, 
    2790, 
    2791, 
    2792, 
    2793, 
    2794, 
    2795, 
    2796, 
    2797, 
    2798, 
    2799, 
    2800, 
    2801, 
    2802, 
    2803, 
    2804, 
    2805, 
    2806, 
    2807, 
    2808, 
    2809, 
    2810, 
    2811, 
    2812, 
    2813, 
    2814, 
    2815, 
    2816, 
    2818, 
    2819, 
    2820, 
    2821, 
    2825, 
    2826, 
    2827, 
    2828, 
    2830, 
    2831, 
    2832, 
    2833, 
    2834, 
    2835, 
    2836, 
    2837, 
    2838, 
    2839, 
    2840, 
    2842, 
    2843, 
    2844, 
    2845, 
    2849, 
    2850, 
    2851, 
    2852, 
    2854, 
    2855, 
    2856, 
    2857, 
    2858, 
    2859, 
    2860, 
    2861, 
    2862, 
    2863, 
    2864, 
    2865, 
    2866, 
    2867, 
    2868, 
    2869, 
    2870, 
    2871, 
    2872, 
    2873, 
    2874, 
    2875, 
    2876, 
    2877, 
    2878, 
    2879, 
    2880, 
    2881, 
    2882, 
    2883, 
    2884, 
    2885, 
    2886, 
    2887, 
    2888, 
    2889, 
    2890, 
    2891, 
    2892, 
    2893, 
    2894, 
    2895, 
    2896, 
    2897, 
    2898, 
    2899, 
    2900, 
    2901, 
    2902, 
    2903, 
    2904, 
    2905, 
    2906, 
    2907, 
    2908, 
    2909, 
    2910, 
    2911, 
    2912, 
    2913, 
    2914, 
    2915, 
    2916, 
    2917, 
    2919, 
    2920, 
    2921, 
    2922, 
    2926, 
    2927, 
    2928, 
    2929, 
    2931, 
    2932, 
    2933, 
    2934, 
    2935, 
    2936, 
    2937, 
    2938, 
    2939, 
    2940, 
    2941, 
    2943, 
    2944, 
    2945, 
    2946, 
    2950, 
    2951, 
    2952, 
    2953, 
    2955, 
    2956, 
    2957, 
    2958, 
    2959, 
    2960, 
    2961, 
    2962, 
    2963, 
    2964, 
    2965, 
    2966, 
    2967, 
    2968, 
    2969, 
    2970, 
    2971, 
    2972, 
    2973, 
    2974, 
    2975, 
    2976, 
    2977, 
    2978, 
    2979, 
    2980, 
    2981, 
    2982, 
    2983, 
    2984, 
    2985, 
    2986, 
    2987, 
    2988, 
    2989, 
    2990, 
    2991, 
    2992, 
    2993, 
    2994, 
    2995, 
    2996, 
    2997, 
    2998, 
    2999, 
    3000, 
    3001, 
    3002, 
    3003, 
    3004, 
    3005, 
    3006, 
    3007, 
    3008, 
    3009, 
    3010, 
    3011, 
    3012, 
    3013, 
    3014, 
    3015, 
    3016, 
    3017, 
    3018, 
    3020, 
    3021, 
    3022, 
    3023, 
    3027, 
    3028, 
    3029, 
    3030, 
    3032, 
    3033, 
    3034, 
    3035, 
    3036, 
    3037, 
    3038, 
    3039, 
    3040, 
    3041, 
    3042, 
    3044, 
    3045, 
    3046, 
    3047, 
    3051, 
    3052, 
    3053, 
    3054, 
    3056, 
    3057, 
    3058, 
    3059, 
    3060, 
    3061, 
    3062, 
    3063, 
    3064, 
    3065, 
    3066, 
    3067, 
    3068, 
    3069, 
    3070, 
    3071, 
    3072, 
    3073, 
    3074, 
    3075, 
    3076, 
    3077, 
    3078, 
    3079, 
    3080, 
    3081, 
    3082, 
    3083, 
    3084, 
    3085, 
    3086, 
    3087, 
    3088, 
    3089, 
    3090, 
    3091, 
    3092, 
    3093, 
    3094, 
    3095, 
    3096, 
    3097, 
    3098, 
    3099, 
    3100, 
    3101, 
    3102, 
    3103, 
    3104, 
    3105, 
    3106, 
    3107, 
    3108, 
    3109, 
    3110, 
    3111, 
    3112, 
    3113, 
    3114, 
    3115, 
    3116, 
    3117, 
    3118, 
    3119, 
    3121, 
    3122, 
    3123, 
    3124, 
    3128, 
    3129, 
    3130, 
    3131, 
    3133, 
    3134, 
    3135, 
    3136, 
    3137, 
    3138, 
    3139, 
    3140, 
    3141, 
    3142, 
    3143, 
    3145, 
    3146, 
    3147, 
    3148, 
    3152, 
    3153, 
    3154, 
    3155, 
    3157, 
    3158, 
    3159, 
    3160, 
    3161, 
    3162, 
    3163, 
    3164, 
    3165, 
    3166, 
    3167, 
    3168, 
    3169, 
    3170, 
    3171, 
    3172, 
    3173, 
    3174, 
    3175, 
    3176, 
    3177, 
    3178, 
    3179, 
    3180, 
    3181, 
    3182, 
    3183, 
    3184, 
    3185, 
    3186, 
    3187, 
    3188, 
    3189, 
    3190, 
    3191, 
    3192, 
    3193, 
    3194, 
    3195, 
    3196, 
    3197, 
    3198, 
    3199, 
    3200, 
    3201, 
    3202, 
    3203, 
    3204, 
    3205, 
    3206, 
    3207, 
    3208, 
    3209, 
    3210, 
    3211, 
    3212, 
    3213, 
    3214, 
    3215, 
    3216, 
    3217, 
    3218, 
    3219, 
    3220, 
    3222, 
    3223, 
    3224, 
    3225, 
    3229, 
    3230, 
    3231, 
    3232, 
    3234, 
    3235, 
    3236, 
    3237, 
    3238, 
    3239, 
    3240, 
    3241, 
    3242, 
    3243, 
    3244, 
    3246, 
    3247, 
    3248, 
    3249, 
    3253, 
    3254, 
    3255, 
    3256, 
    3258, 
    3259, 
    3260, 
    3261, 
    3262, 
    3263, 
    3264, 
    3265, 
    3266, 
    3267, 
    3268, 
    3269, 
    3270, 
    3271, 
    3272, 
    3273, 
    3274, 
    3275, 
    3276, 
    3277, 
    3278, 
    3279, 
    3280, 
    3281, 
    3282, 
    3283, 
    3284, 
    3285, 
    3286, 
    3287, 
    3288, 
    3289, 
    3290, 
    3291, 
    3292, 
    3293, 
    3294, 
    3295, 
    3296, 
    3297, 
    3298, 
    3299, 
    3300, 
    3301, 
    3302, 
    3303, 
    3304, 
    3305, 
    3306, 
    3307, 
    3308, 
    3309, 
    3310, 
    3311, 
    3312, 
    3313, 
    3314, 
    3315, 
    3316, 
    3317, 
    3318, 
    3319, 
    3320, 
    3321, 
    3323, 
    3324, 
    3325, 
    3326, 
    3330, 
    3331, 
    3332, 
    3333, 
    3335, 
    3336, 
    3337, 
    3338, 
    3339, 
    3340, 
    3341, 
    3342, 
    3343, 
    3344, 
    3345, 
    3347, 
    3348, 
    3349, 
    3350, 
    3354, 
    3355, 
    3356, 
    3357, 
    3359, 
    3360, 
    3361, 
    3362, 
    3363, 
    3364, 
    3365, 
    3366, 
    3367, 
    3368, 
    3369, 
    3370, 
    3371, 
    3372, 
    3373, 
    3374, 
    3375, 
    3376, 
    3377, 
    3378, 
    3379, 
    3380, 
    3381, 
    3382, 
    3383, 
    3384, 
    3385, 
    3386, 
    3387, 
    3388, 
    3389, 
    3390, 
    3391, 
    3392, 
    3393, 
    3394, 
    3395, 
    3396, 
    3397, 
    3398, 
    3399, 
    3400, 
    3401, 
    3402, 
    3403, 
    3404, 
    3405, 
    3406, 
    3407, 
    3408, 
    3409, 
    3410, 
    3411, 
    3412, 
    3413, 
    3414, 
    3415, 
    3416, 
    3417, 
    3418, 
    3419, 
    3420, 
    3421, 
    3422, 
    3424, 
    3425, 
    3426, 
    3427, 
    3431, 
    3432, 
    3433, 
    3434, 
    3436, 
    3437, 
    3438, 
    3439, 
    3440, 
    3441, 
    3442, 
    3443, 
    3444, 
    3445, 
    3446, 
    3448, 
    3449, 
    3450, 
    3451, 
    3455, 
    3456, 
    3457, 
    3458, 
    3460, 
    3461, 
    3462, 
    3463, 
    3464, 
    3465, 
    3466, 
    3467, 
    3468, 
    3469, 
    3470, 
    3471, 
    3472, 
    3473, 
    3474, 
    3475, 
    3476, 
    3477, 
    3478, 
    3479, 
    3480, 
    3481, 
    3482, 
    3483, 
    3484, 
    3485, 
    3486, 
    3487, 
    3488, 
    3489, 
    3490, 
    3491, 
    3492, 
    3493, 
    3494, 
    3495, 
    3496, 
    3497, 
    3498, 
    3499, 
    3500, 
    3501, 
    3502, 
    3503, 
    3504, 
    3505, 
    3506, 
    3507, 
    3508, 
    3509, 
    3510, 
    3511, 
    3512, 
    3513, 
    3514, 
    3515, 
    3516, 
    3517, 
    3518, 
    3519, 
    3520, 
    3521, 
    3522, 
    3523, 
    3525, 
    3526, 
    3527, 
    3528, 
    3532, 
    3533, 
    3534, 
    3535, 
    3537, 
    3538, 
    3539, 
    3540, 
    3541, 
    3542, 
    3543, 
    3544, 
    3545, 
    3546, 
    3547, 
    3549, 
    3550, 
    3551, 
    3552, 
    3556, 
    3557, 
    3558, 
    3559, 
    3561, 
    3562, 
    3563, 
    3564, 
    3565, 
    3566, 
    3567, 
    3568, 
    3569, 
    3570, 
    3571, 
    3572, 
    3573, 
    3574, 
    3575, 
    3576, 
    3577, 
    3578, 
    3579, 
    3580, 
    3581, 
    3582, 
    3583, 
    3584, 
    3585, 
    3586, 
    3587, 
    3588, 
    3589, 
    3590, 
    3591, 
    3592, 
    3593, 
    3594, 
    3595, 
    3596, 
    3597, 
    3598, 
    3599, 
    3600, 
    3601, 
    3602, 
    3603, 
    3604, 
    3605, 
    3606, 
    3607, 
    3608, 
    3609, 
    3610, 
    3611, 
    3612, 
    3613, 
    3614, 
    3615, 
    3616, 
    3617, 
    3618, 
    3619, 
    3620, 
    3621, 
    3622, 
    3623, 
    3624, 
    3626, 
    3627, 
    3628, 
    3629, 
    3633, 
    3634, 
    3635, 
    3636, 
    3638, 
    3639, 
    3640, 
    3641, 
    3642, 
    3643, 
    3644, 
    3645, 
    3646, 
    3647, 
    3648, 
    3650, 
    3651, 
    3652, 
    3653, 
    3657, 
    3658, 
    3659, 
    3660, 
    3662, 
    3663, 
    3664, 
    3665, 
    3666, 
    3667, 
    3668, 
    3669, 
    3670, 
    3671, 
    3672, 
    3673, 
    3674, 
    3675, 
    3676, 
    3677, 
    3678, 
    3679, 
    3680, 
    3681, 
    3682, 
    3683, 
    3684, 
    3685, 
    3686, 
    3687, 
    3688, 
    3689, 
    3690, 
    3691, 
    3692, 
    3693, 
    3694, 
    3695, 
    3696, 
    3697, 
    3698, 
    3699, 
    3700, 
    3701, 
    3702, 
    3703, 
    3704, 
    3705, 
    3706, 
    3707, 
    3708, 
    3709, 
    3710, 
    3711, 
    3712, 
    3713, 
    3714, 
    3715, 
    3716, 
    3717, 
    3718, 
    3719, 
    3720, 
    3721, 
    3722, 
    3723, 
    3724, 
    3725, 
    3727, 
    3728, 
    3729, 
    3730, 
    3734, 
    3735, 
    3736, 
    3737, 
    3739, 
    3740, 
    3741, 
    3742, 
    3743, 
    3744, 
    3745, 
    3746, 
    3747, 
    3748, 
    3749, 
    3751, 
    3752, 
    3753, 
    3754, 
    3758, 
    3759, 
    3760, 
    3761, 
    3763, 
    3764, 
    3765, 
    3766, 
    3767, 
    3768, 
    3769, 
    3770, 
    3771, 
    3772, 
    3773, 
    3774, 
    3775, 
    3776, 
    3777, 
    3778, 
    3779, 
    3780, 
    3781, 
    3782, 
    3783, 
    3784, 
    3785, 
    3786, 
    3787, 
    3788, 
    3789, 
    3790, 
    3791, 
    3792, 
    3793, 
    3794, 
    3795, 
    3796, 
    3797, 
    3798, 
    3799, 
    3800, 
    3801, 
    3802, 
    3803, 
    3804, 
    3805, 
    3806, 
    3807, 
    3808, 
    3809, 
    3810, 
    3811, 
    3812, 
    3813, 
    3814, 
    3815, 
    3816, 
    3817, 
    3818, 
    3819, 
    3820, 
    3821, 
    3822, 
    3823, 
    3824, 
    3825, 
    3826, 
    3828, 
    3829, 
    3830, 
    3831, 
    3835, 
    3836, 
    3837, 
    3838, 
    3840, 
    3841, 
    3842, 
    3843, 
    3844, 
    3845, 
    3846, 
    3847, 
    3848, 
    3849, 
    3850, 
    3852, 
    3853, 
    3854, 
    3855, 
    3859, 
    3860, 
    3861, 
    3862, 
    3864, 
    3865, 
    3866, 
    3867, 
    3868, 
    3869, 
    3870, 
    3871, 
    3872, 
    3873, 
    3874, 
    3875, 
    3876, 
    3877, 
    3878, 
    3879, 
    3880, 
    3881, 
    3882, 
    3883, 
    3884, 
    3885, 
    3886, 
    3887, 
    3888, 
    3889, 
    3890, 
    3891, 
    3892, 
    3893, 
    3894, 
    3895, 
    3896, 
    3897, 
    3898, 
    3899, 
    3900, 
    3901, 
    3902, 
    3903, 
    3904, 
    3905, 
    3906, 
    3907, 
    3908, 
    3909, 
    3910, 
    3911, 
    3912, 
    3913, 
    3914, 
    3915, 
    3916, 
    3917, 
    3918, 
    3919, 
    3920, 
    3921, 
    3922, 
    3923, 
    3924, 
    3925, 
    3926, 
    3927, 
    3929, 
    3930, 
    3931, 
    3932, 
    3936, 
    3937, 
    3938, 
    3939, 
    3941, 
    3942, 
    3943, 
    3944, 
    3945, 
    3946, 
    3947, 
    3948, 
    3949, 
    3950, 
    3951, 
    3953, 
    3954, 
    3955, 
    3956, 
    3960, 
    3961, 
    3962, 
    3963, 
    3965, 
    3966, 
    3967, 
    3968, 
    3969, 
    3970, 
    3971, 
    3972, 
    3973, 
    3974, 
    3975, 
    3976, 
    3977, 
    3978, 
    3979, 
    3980, 
    3981, 
    3982, 
    3983, 
    3984, 
    3985, 
    3986, 
    3987, 
    3988, 
    3989, 
    3990, 
    3991, 
    3992, 
    3993, 
    3994, 
    3995, 
    3996, 
    3997, 
    3998, 
    3999, 
    4000, 
    4001, 
    4002, 
    4003, 
    4004, 
    4005, 
    4006, 
    4007, 
    4008, 
    4009, 
    4010, 
    4011, 
    4012, 
    4013, 
    4014, 
    4015, 
    4016, 
    4017, 
    4018, 
    4019, 
    4020, 
    4021, 
    4022, 
    4023, 
    4024, 
    4025, 
    4026, 
    4027, 
    4028, 
    4030, 
    4031, 
    4032, 
    4033, 
    4037, 
    4038, 
    4039, 
    4040, 
    4042, 
    4043, 
    4044, 
    4045, 
    4046, 
    4047, 
    4048, 
    4049, 
    4050, 
    4051, 
    4052, 
    4054, 
    4055, 
    4056, 
    4057, 
    4061, 
    4062, 
    4063, 
    4064, 
    4066, 
    4067, 
    4068, 
    4069, 
    4070, 
    4071, 
    4072, 
    4073, 
    4074, 
    4075, 
    4076, 
    4077, 
    4078, 
    4079, 
    4080, 
    4081, 
    4082, 
    4083, 
    4084, 
    4085, 
    4086, 
    4087, 
    4088, 
    4089, 
    4090, 
    4091, 
    4092, 
    4093, 
    4094, 
    4095, 
    4096, 
    4097, 
    4098, 
    4099, 
    4100, 
    4101, 
    4102, 
    4103, 
    4104, 
    4105, 
    4106, 
    4107, 
    4108, 
    4109, 
    4110, 
    4111, 
    4112, 
    4113, 
    4114, 
    4115, 
    4116, 
    4117, 
    4118, 
    4119, 
    4120, 
    4121, 
    4122, 
    4123, 
    4124, 
    4125, 
    4126, 
    4127, 
    4128, 
    4129, 
    4131, 
    4132, 
    4133, 
    4134, 
    4138, 
    4139, 
    4140, 
    4141, 
    4143, 
    4144, 
    4145, 
    4146, 
    4147, 
    4148, 
    4149, 
    4150, 
    4151, 
    4152, 
    4153, 
    4155, 
    4156, 
    4157, 
    4158, 
    4162, 
    4163, 
    4164, 
    4165, 
    4167, 
    4168, 
    4169, 
    4170, 
    4171, 
    4172, 
    4173, 
    4174, 
    4175, 
    4176, 
    4177, 
    4178, 
    4179, 
    4180, 
    4181, 
    4182, 
    4183, 
    4184, 
    4185, 
    4186, 
    4187, 
    4188, 
    4189, 
    4190, 
    4191, 
    4192, 
    4193, 
    4194, 
    4195, 
    4196, 
    4197, 
    4198, 
    4199, 
    4200, 
    4201, 
    4202, 
    4203, 
    4204, 
    4205, 
    4206, 
    4207, 
    4208, 
    4209, 
    4210, 
    4211, 
    4212, 
    4213, 
    4214, 
    4215, 
    4216, 
    4217, 
    4218, 
    4219, 
    4220, 
    4221, 
    4222, 
    4223, 
    4224, 
    4225, 
    4226, 
    4227, 
    4228, 
    4229, 
    4230, 
    4232, 
    4233, 
    4234, 
    4235, 
    4239, 
    4240, 
    4241, 
    4242, 
    4244, 
    4245, 
    4246, 
    4247, 
    4248, 
    4249, 
    4250, 
    4251, 
    4252, 
    4253, 
    4254, 
    4256, 
    4257, 
    4258, 
    4259, 
    4263, 
    4264, 
    4265, 
    4266, 
    4268, 
    4269, 
    4270, 
    4271, 
    4272, 
    4273, 
    4274, 
    4275, 
    4276, 
    4277, 
    4278, 
    4279, 
    4280, 
    4281, 
    4282, 
    4283, 
    4284, 
    4285, 
    4286, 
    4287, 
    4288, 
    4289, 
    4290, 
    4291, 
    4292, 
    4293
  ], 
  "heads": [[3709, 0, 0]], 
  "attrs": {"mxnet_version": ["int", 10901]}
}